{"format": "graph-model", "generatedBy": "2.5.0-rc0", "convertedBy": "TensorFlow.js Converter v3.7.0", "signature": {"inputs": {"src": {"name": "src:0", "dtype": "DT_FLOAT", "tensorShape": {"dim": [{"size": "-1"}, {"size": "-1"}, {"size": "-1"}, {"size": "3"}]}}, "r2i:0": {"name": "r2i:0", "dtype": "DT_FLOAT", "tensorShape": {"unknownRank": true}}, "downsample_ratio:0": {"name": "downsample_ratio:0", "dtype": "DT_FLOAT", "tensorShape": {"unknownRank": true}}, "r1i:0": {"name": "r1i:0", "dtype": "DT_FLOAT", "tensorShape": {"unknownRank": true}}, "r3i:0": {"name": "r3i:0", "dtype": "DT_FLOAT", "tensorShape": {"unknownRank": true}}, "r4i:0": {"name": "r4i:0", "dtype": "DT_FLOAT", "tensorShape": {"unknownRank": true}}}, "outputs": {"r4o": {"name": "Identity_5:0", "dtype": "DT_FLOAT", "tensorShape": {"dim": [{"size": "-1"}, {"size": "-1"}, {"size": "-1"}, {"size": "64"}]}}, "pha": {"name": "Identity_1:0", "dtype": "DT_FLOAT", "tensorShape": {"dim": [{"size": "-1"}, {"size": "-1"}, {"size": "-1"}, {"size": "1"}]}}, "fgr": {"name": "Identity:0", "dtype": "DT_FLOAT", "tensorShape": {"dim": [{"size": "-1"}, {"size": "-1"}, {"size": "-1"}, {"size": "3"}]}}, "r3o": {"name": "Identity_4:0", "dtype": "DT_FLOAT", "tensorShape": {"dim": [{"size": "-1"}, {"size": "-1"}, {"size": "-1"}, {"size": "40"}]}}, "r2o": {"name": "Identity_3:0", "dtype": "DT_FLOAT", "tensorShape": {"dim": [{"size": "-1"}, {"size": "-1"}, {"size": "-1"}, {"size": "20"}]}}, "r1o": {"name": "Identity_2:0", "dtype": "DT_FLOAT", "tensorShape": {"dim": [{"size": "-1"}, {"size": "-1"}, {"size": "-1"}, {"size": "16"}]}}}}, "modelTopology": {"node": [{"name": "downsample_ratio", "op": "Placeholder", "attr": {"shape": {"shape": {"unknownRank": true}}, "dtype": {"type": "DT_FLOAT"}}}, {"name": "r1i", "op": "Placeholder", "attr": {"shape": {"shape": {"unknownRank": true}}, "dtype": {"type": "DT_FLOAT"}}}, {"name": "r2i", "op": "Placeholder", "attr": {"dtype": {"type": "DT_FLOAT"}, "shape": {"shape": {"unknownRank": true}}}}, {"name": "r3i", "op": "Placeholder", "attr": {"shape": {"shape": {"unknownRank": true}}, "dtype": {"type": "DT_FLOAT"}}}, {"name": "r4i", "op": "Placeholder", "attr": {"shape": {"shape": {"unknownRank": true}}, "dtype": {"type": "DT_FLOAT"}}}, {"name": "src", "op": "Placeholder", "attr": {"dtype": {"type": "DT_FLOAT"}, "shape": {"shape": {"dim": [{"size": "-1"}, {"size": "-1"}, {"size": "-1"}, {"size": "3"}]}}}}, {"name": "StatefulPartitionedCall/matting_network_wrapper/StatefulPartitionedCall/mobile_net_v3_encoder/conv_bn_activation/conv2d/Conv2D_weights", "op": "Const", "attr": {"value": {"tensor": {"dtype": "DT_FLOAT", "tensorShape": {"dim": [{"size": "3"}, {"size": "3"}, {"size": "3"}, {"size": "16"}]}}}, "dtype": {"type": "DT_FLOAT"}}}, {"name": "StatefulPartitionedCall/matting_network_wrapper/StatefulPartitionedCall/mobile_net_v3_encoder/conv_bn_activation/conv2d/Conv2D_bn_offset", "op": "Const", "attr": {"value": {"tensor": {"dtype": "DT_FLOAT", "tensorShape": {"dim": [{"size": "16"}]}}}, "dtype": {"type": "DT_FLOAT"}}}, {"name": "StatefulPartitionedCall/matting_network_wrapper/StatefulPartitionedCall/mobile_net_v3_encoder/inverted_residual/sequential/conv_bn_activation_1/depthwise_conv2d/depthwise_weights", "op": "Const", "attr": {"dtype": {"type": "DT_FLOAT"}, "value": {"tensor": {"dtype": "DT_FLOAT", "tensorShape": {"dim": [{"size": "3"}, {"size": "3"}, {"size": "16"}, {"size": "1"}]}}}}}, {"name": "StatefulPartitionedCall/matting_network_wrapper/StatefulPartitionedCall/mobile_net_v3_encoder/inverted_residual/sequential/conv_bn_activation_1/depthwise_conv2d/depthwise_bn_offset", "op": "Const", "attr": {"value": {"tensor": {"dtype": "DT_FLOAT", "tensorShape": {"dim": [{"size": "16"}]}}}, "dtype": {"type": "DT_FLOAT"}}}, {"name": "StatefulPartitionedCall/matting_network_wrapper/StatefulPartitionedCall/mobile_net_v3_encoder/inverted_residual/sequential/conv_bn_activation_2/conv2d_1/Conv2D_weights", "op": "Const", "attr": {"dtype": {"type": "DT_FLOAT"}, "value": {"tensor": {"dtype": "DT_FLOAT", "tensorShape": {"dim": [{"size": "1"}, {"size": "1"}, {"size": "16"}, {"size": "16"}]}}}}}, {"name": "StatefulPartitionedCall/matting_network_wrapper/StatefulPartitionedCall/mobile_net_v3_encoder/inverted_residual/sequential/conv_bn_activation_2/conv2d_1/Conv2D_bn_offset", "op": "Const", "attr": {"value": {"tensor": {"dtype": "DT_FLOAT", "tensorShape": {"dim": [{"size": "16"}]}}}, "dtype": {"type": "DT_FLOAT"}}}, {"name": "StatefulPartitionedCall/matting_network_wrapper/StatefulPartitionedCall/mobile_net_v3_encoder/inverted_residual_1/sequential_1/conv_bn_activation_3/conv2d_2/Conv2D_weights", "op": "Const", "attr": {"value": {"tensor": {"dtype": "DT_FLOAT", "tensorShape": {"dim": [{"size": "1"}, {"size": "1"}, {"size": "16"}, {"size": "64"}]}}}, "dtype": {"type": "DT_FLOAT"}}}, {"name": "StatefulPartitionedCall/matting_network_wrapper/StatefulPartitionedCall/mobile_net_v3_encoder/inverted_residual_1/sequential_1/conv_bn_activation_3/conv2d_2/Conv2D_bn_offset", "op": "Const", "attr": {"value": {"tensor": {"dtype": "DT_FLOAT", "tensorShape": {"dim": [{"size": "64"}]}}}, "dtype": {"type": "DT_FLOAT"}}}, {"name": "StatefulPartitionedCall/matting_network_wrapper/StatefulPartitionedCall/mobile_net_v3_encoder/inverted_residual_1/sequential_1/conv_bn_activation_4/depthwise_conv2d_1/depthwise_weights", "op": "Const", "attr": {"dtype": {"type": "DT_FLOAT"}, "value": {"tensor": {"dtype": "DT_FLOAT", "tensorShape": {"dim": [{"size": "3"}, {"size": "3"}, {"size": "64"}, {"size": "1"}]}}}}}, {"name": "StatefulPartitionedCall/matting_network_wrapper/StatefulPartitionedCall/mobile_net_v3_encoder/inverted_residual_1/sequential_1/conv_bn_activation_4/depthwise_conv2d_1/depthwise_bn_offset", "op": "Const", "attr": {"dtype": {"type": "DT_FLOAT"}, "value": {"tensor": {"dtype": "DT_FLOAT", "tensorShape": {"dim": [{"size": "64"}]}}}}}, {"name": "StatefulPartitionedCall/matting_network_wrapper/StatefulPartitionedCall/mobile_net_v3_encoder/inverted_residual_1/sequential_1/conv_bn_activation_5/conv2d_3/Conv2D_weights", "op": "Const", "attr": {"value": {"tensor": {"dtype": "DT_FLOAT", "tensorShape": {"dim": [{"size": "1"}, {"size": "1"}, {"size": "64"}, {"size": "24"}]}}}, "dtype": {"type": "DT_FLOAT"}}}, {"name": "StatefulPartitionedCall/matting_network_wrapper/StatefulPartitionedCall/mobile_net_v3_encoder/inverted_residual_1/sequential_1/conv_bn_activation_5/conv2d_3/Conv2D_bn_offset", "op": "Const", "attr": {"value": {"tensor": {"dtype": "DT_FLOAT", "tensorShape": {"dim": [{"size": "24"}]}}}, "dtype": {"type": "DT_FLOAT"}}}, {"name": "StatefulPartitionedCall/matting_network_wrapper/StatefulPartitionedCall/mobile_net_v3_encoder/inverted_residual_2/sequential_2/conv_bn_activation_6/conv2d_4/Conv2D_weights", "op": "Const", "attr": {"dtype": {"type": "DT_FLOAT"}, "value": {"tensor": {"dtype": "DT_FLOAT", "tensorShape": {"dim": [{"size": "1"}, {"size": "1"}, {"size": "24"}, {"size": "72"}]}}}}}, {"name": "StatefulPartitionedCall/matting_network_wrapper/StatefulPartitionedCall/mobile_net_v3_encoder/inverted_residual_2/sequential_2/conv_bn_activation_6/conv2d_4/Conv2D_bn_offset", "op": "Const", "attr": {"dtype": {"type": "DT_FLOAT"}, "value": {"tensor": {"dtype": "DT_FLOAT", "tensorShape": {"dim": [{"size": "72"}]}}}}}, {"name": "StatefulPartitionedCall/matting_network_wrapper/StatefulPartitionedCall/mobile_net_v3_encoder/inverted_residual_2/sequential_2/conv_bn_activation_7/depthwise_conv2d_2/depthwise_weights", "op": "Const", "attr": {"dtype": {"type": "DT_FLOAT"}, "value": {"tensor": {"dtype": "DT_FLOAT", "tensorShape": {"dim": [{"size": "3"}, {"size": "3"}, {"size": "72"}, {"size": "1"}]}}}}}, {"name": "StatefulPartitionedCall/matting_network_wrapper/StatefulPartitionedCall/mobile_net_v3_encoder/inverted_residual_2/sequential_2/conv_bn_activation_7/depthwise_conv2d_2/depthwise_bn_offset", "op": "Const", "attr": {"dtype": {"type": "DT_FLOAT"}, "value": {"tensor": {"dtype": "DT_FLOAT", "tensorShape": {"dim": [{"size": "72"}]}}}}}, {"name": "StatefulPartitionedCall/matting_network_wrapper/StatefulPartitionedCall/mobile_net_v3_encoder/inverted_residual_2/sequential_2/conv_bn_activation_8/conv2d_5/Conv2D_weights", "op": "Const", "attr": {"value": {"tensor": {"dtype": "DT_FLOAT", "tensorShape": {"dim": [{"size": "1"}, {"size": "1"}, {"size": "72"}, {"size": "24"}]}}}, "dtype": {"type": "DT_FLOAT"}}}, {"name": "StatefulPartitionedCall/matting_network_wrapper/StatefulPartitionedCall/mobile_net_v3_encoder/inverted_residual_2/sequential_2/conv_bn_activation_8/conv2d_5/Conv2D_bn_offset", "op": "Const", "attr": {"dtype": {"type": "DT_FLOAT"}, "value": {"tensor": {"dtype": "DT_FLOAT", "tensorShape": {"dim": [{"size": "24"}]}}}}}, {"name": "StatefulPartitionedCall/matting_network_wrapper/StatefulPartitionedCall/mobile_net_v3_encoder/inverted_residual_3/sequential_3/conv_bn_activation_9/conv2d_6/Conv2D_weights", "op": "Const", "attr": {"value": {"tensor": {"dtype": "DT_FLOAT", "tensorShape": {"dim": [{"size": "1"}, {"size": "1"}, {"size": "24"}, {"size": "72"}]}}}, "dtype": {"type": "DT_FLOAT"}}}, {"name": "StatefulPartitionedCall/matting_network_wrapper/StatefulPartitionedCall/mobile_net_v3_encoder/inverted_residual_3/sequential_3/conv_bn_activation_9/conv2d_6/Conv2D_bn_offset", "op": "Const", "attr": {"dtype": {"type": "DT_FLOAT"}, "value": {"tensor": {"dtype": "DT_FLOAT", "tensorShape": {"dim": [{"size": "72"}]}}}}}, {"name": "StatefulPartitionedCall/matting_network_wrapper/StatefulPartitionedCall/mobile_net_v3_encoder/inverted_residual_3/sequential_3/conv_bn_activation_10/depthwise_conv2d_3/depthwise_weights", "op": "Const", "attr": {"dtype": {"type": "DT_FLOAT"}, "value": {"tensor": {"dtype": "DT_FLOAT", "tensorShape": {"dim": [{"size": "5"}, {"size": "5"}, {"size": "72"}, {"size": "1"}]}}}}}, {"name": "StatefulPartitionedCall/matting_network_wrapper/StatefulPartitionedCall/mobile_net_v3_encoder/inverted_residual_3/sequential_3/conv_bn_activation_10/depthwise_conv2d_3/depthwise_bn_offset", "op": "Const", "attr": {"value": {"tensor": {"dtype": "DT_FLOAT", "tensorShape": {"dim": [{"size": "72"}]}}}, "dtype": {"type": "DT_FLOAT"}}}, {"name": "StatefulPartitionedCall/matting_network_wrapper/StatefulPartitionedCall/mobile_net_v3_encoder/inverted_residual_3/sequential_3/conv_bn_activation_11/conv2d_9/Conv2D_weights", "op": "Const", "attr": {"dtype": {"type": "DT_FLOAT"}, "value": {"tensor": {"dtype": "DT_FLOAT", "tensorShape": {"dim": [{"size": "1"}, {"size": "1"}, {"size": "72"}, {"size": "40"}]}}}}}, {"name": "StatefulPartitionedCall/matting_network_wrapper/StatefulPartitionedCall/mobile_net_v3_encoder/inverted_residual_3/sequential_3/conv_bn_activation_11/conv2d_9/Conv2D_bn_offset", "op": "Const", "attr": {"dtype": {"type": "DT_FLOAT"}, "value": {"tensor": {"dtype": "DT_FLOAT", "tensorShape": {"dim": [{"size": "40"}]}}}}}, {"name": "StatefulPartitionedCall/matting_network_wrapper/StatefulPartitionedCall/mobile_net_v3_encoder/inverted_residual_4/sequential_4/conv_bn_activation_12/conv2d_10/Conv2D_weights", "op": "Const", "attr": {"dtype": {"type": "DT_FLOAT"}, "value": {"tensor": {"dtype": "DT_FLOAT", "tensorShape": {"dim": [{"size": "1"}, {"size": "1"}, {"size": "40"}, {"size": "120"}]}}}}}, {"name": "StatefulPartitionedCall/matting_network_wrapper/StatefulPartitionedCall/mobile_net_v3_encoder/inverted_residual_4/sequential_4/conv_bn_activation_12/conv2d_10/Conv2D_bn_offset", "op": "Const", "attr": {"dtype": {"type": "DT_FLOAT"}, "value": {"tensor": {"dtype": "DT_FLOAT", "tensorShape": {"dim": [{"size": "120"}]}}}}}, {"name": "StatefulPartitionedCall/matting_network_wrapper/StatefulPartitionedCall/mobile_net_v3_encoder/inverted_residual_4/sequential_4/conv_bn_activation_13/depthwise_conv2d_4/depthwise_weights", "op": "Const", "attr": {"dtype": {"type": "DT_FLOAT"}, "value": {"tensor": {"dtype": "DT_FLOAT", "tensorShape": {"dim": [{"size": "5"}, {"size": "5"}, {"size": "120"}, {"size": "1"}]}}}}}, {"name": "StatefulPartitionedCall/matting_network_wrapper/StatefulPartitionedCall/mobile_net_v3_encoder/inverted_residual_4/sequential_4/conv_bn_activation_13/depthwise_conv2d_4/depthwise_bn_offset", "op": "Const", "attr": {"value": {"tensor": {"dtype": "DT_FLOAT", "tensorShape": {"dim": [{"size": "120"}]}}}, "dtype": {"type": "DT_FLOAT"}}}, {"name": "StatefulPartitionedCall/matting_network_wrapper/StatefulPartitionedCall/mobile_net_v3_encoder/inverted_residual_4/sequential_4/conv_bn_activation_14/conv2d_13/Conv2D_weights", "op": "Const", "attr": {"value": {"tensor": {"dtype": "DT_FLOAT", "tensorShape": {"dim": [{"size": "1"}, {"size": "1"}, {"size": "120"}, {"size": "40"}]}}}, "dtype": {"type": "DT_FLOAT"}}}, {"name": "StatefulPartitionedCall/matting_network_wrapper/StatefulPartitionedCall/mobile_net_v3_encoder/inverted_residual_4/sequential_4/conv_bn_activation_14/conv2d_13/Conv2D_bn_offset", "op": "Const", "attr": {"dtype": {"type": "DT_FLOAT"}, "value": {"tensor": {"dtype": "DT_FLOAT", "tensorShape": {"dim": [{"size": "40"}]}}}}}, {"name": "StatefulPartitionedCall/matting_network_wrapper/StatefulPartitionedCall/mobile_net_v3_encoder/inverted_residual_5/sequential_5/conv_bn_activation_15/conv2d_14/Conv2D_weights", "op": "Const", "attr": {"value": {"tensor": {"dtype": "DT_FLOAT", "tensorShape": {"dim": [{"size": "1"}, {"size": "1"}, {"size": "40"}, {"size": "120"}]}}}, "dtype": {"type": "DT_FLOAT"}}}, {"name": "StatefulPartitionedCall/matting_network_wrapper/StatefulPartitionedCall/mobile_net_v3_encoder/inverted_residual_5/sequential_5/conv_bn_activation_15/conv2d_14/Conv2D_bn_offset", "op": "Const", "attr": {"dtype": {"type": "DT_FLOAT"}, "value": {"tensor": {"dtype": "DT_FLOAT", "tensorShape": {"dim": [{"size": "120"}]}}}}}, {"name": "StatefulPartitionedCall/matting_network_wrapper/StatefulPartitionedCall/mobile_net_v3_encoder/inverted_residual_5/sequential_5/conv_bn_activation_16/depthwise_conv2d_5/depthwise_weights", "op": "Const", "attr": {"dtype": {"type": "DT_FLOAT"}, "value": {"tensor": {"dtype": "DT_FLOAT", "tensorShape": {"dim": [{"size": "5"}, {"size": "5"}, {"size": "120"}, {"size": "1"}]}}}}}, {"name": "StatefulPartitionedCall/matting_network_wrapper/StatefulPartitionedCall/mobile_net_v3_encoder/inverted_residual_5/sequential_5/conv_bn_activation_16/depthwise_conv2d_5/depthwise_bn_offset", "op": "Const", "attr": {"dtype": {"type": "DT_FLOAT"}, "value": {"tensor": {"dtype": "DT_FLOAT", "tensorShape": {"dim": [{"size": "120"}]}}}}}, {"name": "StatefulPartitionedCall/matting_network_wrapper/StatefulPartitionedCall/mobile_net_v3_encoder/inverted_residual_5/sequential_5/conv_bn_activation_17/conv2d_17/Conv2D_weights", "op": "Const", "attr": {"value": {"tensor": {"dtype": "DT_FLOAT", "tensorShape": {"dim": [{"size": "1"}, {"size": "1"}, {"size": "120"}, {"size": "40"}]}}}, "dtype": {"type": "DT_FLOAT"}}}, {"name": "StatefulPartitionedCall/matting_network_wrapper/StatefulPartitionedCall/mobile_net_v3_encoder/inverted_residual_5/sequential_5/conv_bn_activation_17/conv2d_17/Conv2D_bn_offset", "op": "Const", "attr": {"dtype": {"type": "DT_FLOAT"}, "value": {"tensor": {"dtype": "DT_FLOAT", "tensorShape": {"dim": [{"size": "40"}]}}}}}, {"name": "StatefulPartitionedCall/matting_network_wrapper/StatefulPartitionedCall/mobile_net_v3_encoder/inverted_residual_6/sequential_6/conv_bn_activation_18/conv2d_18/Conv2D_weights", "op": "Const", "attr": {"dtype": {"type": "DT_FLOAT"}, "value": {"tensor": {"dtype": "DT_FLOAT", "tensorShape": {"dim": [{"size": "1"}, {"size": "1"}, {"size": "40"}, {"size": "240"}]}}}}}, {"name": "StatefulPartitionedCall/matting_network_wrapper/StatefulPartitionedCall/mobile_net_v3_encoder/inverted_residual_6/sequential_6/conv_bn_activation_18/conv2d_18/Conv2D_bn_offset", "op": "Const", "attr": {"dtype": {"type": "DT_FLOAT"}, "value": {"tensor": {"dtype": "DT_FLOAT", "tensorShape": {"dim": [{"size": "240"}]}}}}}, {"name": "StatefulPartitionedCall/matting_network_wrapper/StatefulPartitionedCall/mobile_net_v3_encoder/inverted_residual_6/sequential_6/conv_bn_activation_19/depthwise_conv2d_6/depthwise_weights", "op": "Const", "attr": {"value": {"tensor": {"dtype": "DT_FLOAT", "tensorShape": {"dim": [{"size": "3"}, {"size": "3"}, {"size": "240"}, {"size": "1"}]}}}, "dtype": {"type": "DT_FLOAT"}}}, {"name": "StatefulPartitionedCall/matting_network_wrapper/StatefulPartitionedCall/mobile_net_v3_encoder/inverted_residual_6/sequential_6/conv_bn_activation_19/depthwise_conv2d_6/depthwise_bn_offset", "op": "Const", "attr": {"dtype": {"type": "DT_FLOAT"}, "value": {"tensor": {"dtype": "DT_FLOAT", "tensorShape": {"dim": [{"size": "240"}]}}}}}, {"name": "StatefulPartitionedCall/matting_network_wrapper/StatefulPartitionedCall/mobile_net_v3_encoder/inverted_residual_6/sequential_6/conv_bn_activation_20/conv2d_19/Conv2D_weights", "op": "Const", "attr": {"value": {"tensor": {"dtype": "DT_FLOAT", "tensorShape": {"dim": [{"size": "1"}, {"size": "1"}, {"size": "240"}, {"size": "80"}]}}}, "dtype": {"type": "DT_FLOAT"}}}, {"name": "StatefulPartitionedCall/matting_network_wrapper/StatefulPartitionedCall/mobile_net_v3_encoder/inverted_residual_6/sequential_6/conv_bn_activation_20/conv2d_19/Conv2D_bn_offset", "op": "Const", "attr": {"value": {"tensor": {"dtype": "DT_FLOAT", "tensorShape": {"dim": [{"size": "80"}]}}}, "dtype": {"type": "DT_FLOAT"}}}, {"name": "StatefulPartitionedCall/matting_network_wrapper/StatefulPartitionedCall/mobile_net_v3_encoder/inverted_residual_7/sequential_7/conv_bn_activation_21/conv2d_20/Conv2D_weights", "op": "Const", "attr": {"value": {"tensor": {"dtype": "DT_FLOAT", "tensorShape": {"dim": [{"size": "1"}, {"size": "1"}, {"size": "80"}, {"size": "200"}]}}}, "dtype": {"type": "DT_FLOAT"}}}, {"name": "StatefulPartitionedCall/matting_network_wrapper/StatefulPartitionedCall/mobile_net_v3_encoder/inverted_residual_7/sequential_7/conv_bn_activation_21/conv2d_20/Conv2D_bn_offset", "op": "Const", "attr": {"dtype": {"type": "DT_FLOAT"}, "value": {"tensor": {"dtype": "DT_FLOAT", "tensorShape": {"dim": [{"size": "200"}]}}}}}, {"name": "StatefulPartitionedCall/matting_network_wrapper/StatefulPartitionedCall/mobile_net_v3_encoder/inverted_residual_7/sequential_7/conv_bn_activation_22/depthwise_conv2d_7/depthwise_weights", "op": "Const", "attr": {"dtype": {"type": "DT_FLOAT"}, "value": {"tensor": {"dtype": "DT_FLOAT", "tensorShape": {"dim": [{"size": "3"}, {"size": "3"}, {"size": "200"}, {"size": "1"}]}}}}}, {"name": "StatefulPartitionedCall/matting_network_wrapper/StatefulPartitionedCall/mobile_net_v3_encoder/inverted_residual_7/sequential_7/conv_bn_activation_22/depthwise_conv2d_7/depthwise_bn_offset", "op": "Const", "attr": {"value": {"tensor": {"dtype": "DT_FLOAT", "tensorShape": {"dim": [{"size": "200"}]}}}, "dtype": {"type": "DT_FLOAT"}}}, {"name": "StatefulPartitionedCall/matting_network_wrapper/StatefulPartitionedCall/mobile_net_v3_encoder/inverted_residual_7/sequential_7/conv_bn_activation_23/conv2d_21/Conv2D_weights", "op": "Const", "attr": {"value": {"tensor": {"dtype": "DT_FLOAT", "tensorShape": {"dim": [{"size": "1"}, {"size": "1"}, {"size": "200"}, {"size": "80"}]}}}, "dtype": {"type": "DT_FLOAT"}}}, {"name": "StatefulPartitionedCall/matting_network_wrapper/StatefulPartitionedCall/mobile_net_v3_encoder/inverted_residual_7/sequential_7/conv_bn_activation_23/conv2d_21/Conv2D_bn_offset", "op": "Const", "attr": {"value": {"tensor": {"dtype": "DT_FLOAT", "tensorShape": {"dim": [{"size": "80"}]}}}, "dtype": {"type": "DT_FLOAT"}}}, {"name": "StatefulPartitionedCall/matting_network_wrapper/StatefulPartitionedCall/mobile_net_v3_encoder/inverted_residual_8/sequential_8/conv_bn_activation_24/conv2d_22/Conv2D_weights", "op": "Const", "attr": {"value": {"tensor": {"dtype": "DT_FLOAT", "tensorShape": {"dim": [{"size": "1"}, {"size": "1"}, {"size": "80"}, {"size": "184"}]}}}, "dtype": {"type": "DT_FLOAT"}}}, {"name": "StatefulPartitionedCall/matting_network_wrapper/StatefulPartitionedCall/mobile_net_v3_encoder/inverted_residual_8/sequential_8/conv_bn_activation_24/conv2d_22/Conv2D_bn_offset", "op": "Const", "attr": {"dtype": {"type": "DT_FLOAT"}, "value": {"tensor": {"dtype": "DT_FLOAT", "tensorShape": {"dim": [{"size": "184"}]}}}}}, {"name": "StatefulPartitionedCall/matting_network_wrapper/StatefulPartitionedCall/mobile_net_v3_encoder/inverted_residual_8/sequential_8/conv_bn_activation_25/depthwise_conv2d_8/depthwise_weights", "op": "Const", "attr": {"value": {"tensor": {"dtype": "DT_FLOAT", "tensorShape": {"dim": [{"size": "3"}, {"size": "3"}, {"size": "184"}, {"size": "1"}]}}}, "dtype": {"type": "DT_FLOAT"}}}, {"name": "StatefulPartitionedCall/matting_network_wrapper/StatefulPartitionedCall/mobile_net_v3_encoder/inverted_residual_8/sequential_8/conv_bn_activation_25/depthwise_conv2d_8/depthwise_bn_offset", "op": "Const", "attr": {"dtype": {"type": "DT_FLOAT"}, "value": {"tensor": {"dtype": "DT_FLOAT", "tensorShape": {"dim": [{"size": "184"}]}}}}}, {"name": "StatefulPartitionedCall/matting_network_wrapper/StatefulPartitionedCall/mobile_net_v3_encoder/inverted_residual_8/sequential_8/conv_bn_activation_26/conv2d_23/Conv2D_weights", "op": "Const", "attr": {"dtype": {"type": "DT_FLOAT"}, "value": {"tensor": {"dtype": "DT_FLOAT", "tensorShape": {"dim": [{"size": "1"}, {"size": "1"}, {"size": "184"}, {"size": "80"}]}}}}}, {"name": "StatefulPartitionedCall/matting_network_wrapper/StatefulPartitionedCall/mobile_net_v3_encoder/inverted_residual_8/sequential_8/conv_bn_activation_26/conv2d_23/Conv2D_bn_offset", "op": "Const", "attr": {"value": {"tensor": {"dtype": "DT_FLOAT", "tensorShape": {"dim": [{"size": "80"}]}}}, "dtype": {"type": "DT_FLOAT"}}}, {"name": "StatefulPartitionedCall/matting_network_wrapper/StatefulPartitionedCall/mobile_net_v3_encoder/inverted_residual_9/sequential_9/conv_bn_activation_27/conv2d_24/Conv2D_weights", "op": "Const", "attr": {"dtype": {"type": "DT_FLOAT"}, "value": {"tensor": {"dtype": "DT_FLOAT", "tensorShape": {"dim": [{"size": "1"}, {"size": "1"}, {"size": "80"}, {"size": "184"}]}}}}}, {"name": "StatefulPartitionedCall/matting_network_wrapper/StatefulPartitionedCall/mobile_net_v3_encoder/inverted_residual_9/sequential_9/conv_bn_activation_27/conv2d_24/Conv2D_bn_offset", "op": "Const", "attr": {"value": {"tensor": {"dtype": "DT_FLOAT", "tensorShape": {"dim": [{"size": "184"}]}}}, "dtype": {"type": "DT_FLOAT"}}}, {"name": "StatefulPartitionedCall/matting_network_wrapper/StatefulPartitionedCall/mobile_net_v3_encoder/inverted_residual_9/sequential_9/conv_bn_activation_28/depthwise_conv2d_9/depthwise_weights", "op": "Const", "attr": {"dtype": {"type": "DT_FLOAT"}, "value": {"tensor": {"dtype": "DT_FLOAT", "tensorShape": {"dim": [{"size": "3"}, {"size": "3"}, {"size": "184"}, {"size": "1"}]}}}}}, {"name": "StatefulPartitionedCall/matting_network_wrapper/StatefulPartitionedCall/mobile_net_v3_encoder/inverted_residual_9/sequential_9/conv_bn_activation_28/depthwise_conv2d_9/depthwise_bn_offset", "op": "Const", "attr": {"dtype": {"type": "DT_FLOAT"}, "value": {"tensor": {"dtype": "DT_FLOAT", "tensorShape": {"dim": [{"size": "184"}]}}}}}, {"name": "StatefulPartitionedCall/matting_network_wrapper/StatefulPartitionedCall/mobile_net_v3_encoder/inverted_residual_9/sequential_9/conv_bn_activation_29/conv2d_25/Conv2D_weights", "op": "Const", "attr": {"value": {"tensor": {"dtype": "DT_FLOAT", "tensorShape": {"dim": [{"size": "1"}, {"size": "1"}, {"size": "184"}, {"size": "80"}]}}}, "dtype": {"type": "DT_FLOAT"}}}, {"name": "StatefulPartitionedCall/matting_network_wrapper/StatefulPartitionedCall/mobile_net_v3_encoder/inverted_residual_9/sequential_9/conv_bn_activation_29/conv2d_25/Conv2D_bn_offset", "op": "Const", "attr": {"dtype": {"type": "DT_FLOAT"}, "value": {"tensor": {"dtype": "DT_FLOAT", "tensorShape": {"dim": [{"size": "80"}]}}}}}, {"name": "StatefulPartitionedCall/matting_network_wrapper/StatefulPartitionedCall/mobile_net_v3_encoder/inverted_residual_10/sequential_10/conv_bn_activation_30/conv2d_26/Conv2D_weights", "op": "Const", "attr": {"value": {"tensor": {"dtype": "DT_FLOAT", "tensorShape": {"dim": [{"size": "1"}, {"size": "1"}, {"size": "80"}, {"size": "480"}]}}}, "dtype": {"type": "DT_FLOAT"}}}, {"name": "StatefulPartitionedCall/matting_network_wrapper/StatefulPartitionedCall/mobile_net_v3_encoder/inverted_residual_10/sequential_10/conv_bn_activation_30/conv2d_26/Conv2D_bn_offset", "op": "Const", "attr": {"value": {"tensor": {"dtype": "DT_FLOAT", "tensorShape": {"dim": [{"size": "480"}]}}}, "dtype": {"type": "DT_FLOAT"}}}, {"name": "StatefulPartitionedCall/matting_network_wrapper/StatefulPartitionedCall/mobile_net_v3_encoder/inverted_residual_10/sequential_10/conv_bn_activation_31/depthwise_conv2d_10/depthwise_weights", "op": "Const", "attr": {"dtype": {"type": "DT_FLOAT"}, "value": {"tensor": {"dtype": "DT_FLOAT", "tensorShape": {"dim": [{"size": "3"}, {"size": "3"}, {"size": "480"}, {"size": "1"}]}}}}}, {"name": "StatefulPartitionedCall/matting_network_wrapper/StatefulPartitionedCall/mobile_net_v3_encoder/inverted_residual_10/sequential_10/conv_bn_activation_31/depthwise_conv2d_10/depthwise_bn_offset", "op": "Const", "attr": {"value": {"tensor": {"dtype": "DT_FLOAT", "tensorShape": {"dim": [{"size": "480"}]}}}, "dtype": {"type": "DT_FLOAT"}}}, {"name": "StatefulPartitionedCall/matting_network_wrapper/StatefulPartitionedCall/mobile_net_v3_encoder/inverted_residual_10/sequential_10/conv_bn_activation_32/conv2d_29/Conv2D_weights", "op": "Const", "attr": {"dtype": {"type": "DT_FLOAT"}, "value": {"tensor": {"dtype": "DT_FLOAT", "tensorShape": {"dim": [{"size": "1"}, {"size": "1"}, {"size": "480"}, {"size": "112"}]}}}}}, {"name": "StatefulPartitionedCall/matting_network_wrapper/StatefulPartitionedCall/mobile_net_v3_encoder/inverted_residual_10/sequential_10/conv_bn_activation_32/conv2d_29/Conv2D_bn_offset", "op": "Const", "attr": {"dtype": {"type": "DT_FLOAT"}, "value": {"tensor": {"dtype": "DT_FLOAT", "tensorShape": {"dim": [{"size": "112"}]}}}}}, {"name": "StatefulPartitionedCall/matting_network_wrapper/StatefulPartitionedCall/mobile_net_v3_encoder/inverted_residual_11/sequential_11/conv_bn_activation_33/conv2d_30/Conv2D_weights", "op": "Const", "attr": {"dtype": {"type": "DT_FLOAT"}, "value": {"tensor": {"dtype": "DT_FLOAT", "tensorShape": {"dim": [{"size": "1"}, {"size": "1"}, {"size": "112"}, {"size": "672"}]}}}}}, {"name": "StatefulPartitionedCall/matting_network_wrapper/StatefulPartitionedCall/mobile_net_v3_encoder/inverted_residual_11/sequential_11/conv_bn_activation_33/conv2d_30/Conv2D_bn_offset", "op": "Const", "attr": {"dtype": {"type": "DT_FLOAT"}, "value": {"tensor": {"dtype": "DT_FLOAT", "tensorShape": {"dim": [{"size": "672"}]}}}}}, {"name": "StatefulPartitionedCall/matting_network_wrapper/StatefulPartitionedCall/mobile_net_v3_encoder/inverted_residual_11/sequential_11/conv_bn_activation_34/depthwise_conv2d_11/depthwise_weights", "op": "Const", "attr": {"dtype": {"type": "DT_FLOAT"}, "value": {"tensor": {"dtype": "DT_FLOAT", "tensorShape": {"dim": [{"size": "3"}, {"size": "3"}, {"size": "672"}, {"size": "1"}]}}}}}, {"name": "StatefulPartitionedCall/matting_network_wrapper/StatefulPartitionedCall/mobile_net_v3_encoder/inverted_residual_11/sequential_11/conv_bn_activation_34/depthwise_conv2d_11/depthwise_bn_offset", "op": "Const", "attr": {"dtype": {"type": "DT_FLOAT"}, "value": {"tensor": {"dtype": "DT_FLOAT", "tensorShape": {"dim": [{"size": "672"}]}}}}}, {"name": "StatefulPartitionedCall/matting_network_wrapper/StatefulPartitionedCall/mobile_net_v3_encoder/inverted_residual_11/sequential_11/conv_bn_activation_35/conv2d_33/Conv2D_weights", "op": "Const", "attr": {"value": {"tensor": {"dtype": "DT_FLOAT", "tensorShape": {"dim": [{"size": "1"}, {"size": "1"}, {"size": "672"}, {"size": "112"}]}}}, "dtype": {"type": "DT_FLOAT"}}}, {"name": "StatefulPartitionedCall/matting_network_wrapper/StatefulPartitionedCall/mobile_net_v3_encoder/inverted_residual_11/sequential_11/conv_bn_activation_35/conv2d_33/Conv2D_bn_offset", "op": "Const", "attr": {"dtype": {"type": "DT_FLOAT"}, "value": {"tensor": {"dtype": "DT_FLOAT", "tensorShape": {"dim": [{"size": "112"}]}}}}}, {"name": "StatefulPartitionedCall/matting_network_wrapper/StatefulPartitionedCall/mobile_net_v3_encoder/inverted_residual_12/sequential_12/conv_bn_activation_36/conv2d_34/Conv2D_weights", "op": "Const", "attr": {"dtype": {"type": "DT_FLOAT"}, "value": {"tensor": {"dtype": "DT_FLOAT", "tensorShape": {"dim": [{"size": "1"}, {"size": "1"}, {"size": "112"}, {"size": "672"}]}}}}}, {"name": "StatefulPartitionedCall/matting_network_wrapper/StatefulPartitionedCall/mobile_net_v3_encoder/inverted_residual_12/sequential_12/conv_bn_activation_36/conv2d_34/Conv2D_bn_offset", "op": "Const", "attr": {"value": {"tensor": {"dtype": "DT_FLOAT", "tensorShape": {"dim": [{"size": "672"}]}}}, "dtype": {"type": "DT_FLOAT"}}}, {"name": "StatefulPartitionedCall/matting_network_wrapper/StatefulPartitionedCall/mobile_net_v3_encoder/inverted_residual_12/sequential_12/conv_bn_activation_38/conv2d_37/Conv2D_weights", "op": "Const", "attr": {"dtype": {"type": "DT_FLOAT"}, "value": {"tensor": {"dtype": "DT_FLOAT", "tensorShape": {"dim": [{"size": "1"}, {"size": "1"}, {"size": "672"}, {"size": "160"}]}}}}}, {"name": "StatefulPartitionedCall/matting_network_wrapper/StatefulPartitionedCall/mobile_net_v3_encoder/inverted_residual_12/sequential_12/conv_bn_activation_38/conv2d_37/Conv2D_bn_offset", "op": "Const", "attr": {"dtype": {"type": "DT_FLOAT"}, "value": {"tensor": {"dtype": "DT_FLOAT", "tensorShape": {"dim": [{"size": "160"}]}}}}}, {"name": "StatefulPartitionedCall/matting_network_wrapper/StatefulPartitionedCall/mobile_net_v3_encoder/inverted_residual_13/sequential_13/conv_bn_activation_39/conv2d_38/Conv2D_weights", "op": "Const", "attr": {"value": {"tensor": {"dtype": "DT_FLOAT", "tensorShape": {"dim": [{"size": "1"}, {"size": "1"}, {"size": "160"}, {"size": "960"}]}}}, "dtype": {"type": "DT_FLOAT"}}}, {"name": "StatefulPartitionedCall/matting_network_wrapper/StatefulPartitionedCall/mobile_net_v3_encoder/inverted_residual_13/sequential_13/conv_bn_activation_39/conv2d_38/Conv2D_bn_offset", "op": "Const", "attr": {"dtype": {"type": "DT_FLOAT"}, "value": {"tensor": {"dtype": "DT_FLOAT", "tensorShape": {"dim": [{"size": "960"}]}}}}}, {"name": "StatefulPartitionedCall/matting_network_wrapper/StatefulPartitionedCall/mobile_net_v3_encoder/inverted_residual_13/sequential_13/conv_bn_activation_41/conv2d_41/Conv2D_weights", "op": "Const", "attr": {"dtype": {"type": "DT_FLOAT"}, "value": {"tensor": {"dtype": "DT_FLOAT", "tensorShape": {"dim": [{"size": "1"}, {"size": "1"}, {"size": "960"}, {"size": "160"}]}}}}}, {"name": "StatefulPartitionedCall/matting_network_wrapper/StatefulPartitionedCall/mobile_net_v3_encoder/inverted_residual_13/sequential_13/conv_bn_activation_41/conv2d_41/Conv2D_bn_offset", "op": "Const", "attr": {"value": {"tensor": {"dtype": "DT_FLOAT", "tensorShape": {"dim": [{"size": "160"}]}}}, "dtype": {"type": "DT_FLOAT"}}}, {"name": "StatefulPartitionedCall/matting_network_wrapper/StatefulPartitionedCall/mobile_net_v3_encoder/inverted_residual_14/sequential_14/conv_bn_activation_42/conv2d_42/Conv2D_weights", "op": "Const", "attr": {"dtype": {"type": "DT_FLOAT"}, "value": {"tensor": {"dtype": "DT_FLOAT", "tensorShape": {"dim": [{"size": "1"}, {"size": "1"}, {"size": "160"}, {"size": "960"}]}}}}}, {"name": "StatefulPartitionedCall/matting_network_wrapper/StatefulPartitionedCall/mobile_net_v3_encoder/inverted_residual_14/sequential_14/conv_bn_activation_42/conv2d_42/Conv2D_bn_offset", "op": "Const", "attr": {"dtype": {"type": "DT_FLOAT"}, "value": {"tensor": {"dtype": "DT_FLOAT", "tensorShape": {"dim": [{"size": "960"}]}}}}}, {"name": "StatefulPartitionedCall/matting_network_wrapper/StatefulPartitionedCall/mobile_net_v3_encoder/inverted_residual_14/sequential_14/conv_bn_activation_44/conv2d_45/Conv2D_weights", "op": "Const", "attr": {"dtype": {"type": "DT_FLOAT"}, "value": {"tensor": {"dtype": "DT_FLOAT", "tensorShape": {"dim": [{"size": "1"}, {"size": "1"}, {"size": "960"}, {"size": "160"}]}}}}}, {"name": "StatefulPartitionedCall/matting_network_wrapper/StatefulPartitionedCall/mobile_net_v3_encoder/inverted_residual_14/sequential_14/conv_bn_activation_44/conv2d_45/Conv2D_bn_offset", "op": "Const", "attr": {"dtype": {"type": "DT_FLOAT"}, "value": {"tensor": {"dtype": "DT_FLOAT", "tensorShape": {"dim": [{"size": "160"}]}}}}}, {"name": "StatefulPartitionedCall/matting_network_wrapper/StatefulPartitionedCall/mobile_net_v3_encoder/conv_bn_activation_45/conv2d_46/Conv2D_weights", "op": "Const", "attr": {"value": {"tensor": {"dtype": "DT_FLOAT", "tensorShape": {"dim": [{"size": "1"}, {"size": "1"}, {"size": "160"}, {"size": "960"}]}}}, "dtype": {"type": "DT_FLOAT"}}}, {"name": "StatefulPartitionedCall/matting_network_wrapper/StatefulPartitionedCall/mobile_net_v3_encoder/conv_bn_activation_45/conv2d_46/Conv2D_bn_offset", "op": "Const", "attr": {"dtype": {"type": "DT_FLOAT"}, "value": {"tensor": {"dtype": "DT_FLOAT", "tensorShape": {"dim": [{"size": "960"}]}}}}}, {"name": "StatefulPartitionedCall/matting_network_wrapper/StatefulPartitionedCall/lraspp/sequential_15/conv2d_47/Conv2D_weights", "op": "Const", "attr": {"value": {"tensor": {"dtype": "DT_FLOAT", "tensorShape": {"dim": [{"size": "1"}, {"size": "1"}, {"size": "960"}, {"size": "128"}]}}}, "dtype": {"type": "DT_FLOAT"}}}, {"name": "StatefulPartitionedCall/matting_network_wrapper/StatefulPartitionedCall/lraspp/sequential_15/conv2d_47/Conv2D_bn_offset", "op": "Const", "attr": {"dtype": {"type": "DT_FLOAT"}, "value": {"tensor": {"dtype": "DT_FLOAT", "tensorShape": {"dim": [{"size": "128"}]}}}}}, {"name": "StatefulPartitionedCall/matting_network_wrapper/StatefulPartitionedCall/recurrent_decoder/upsampling_block/sequential_16/conv2d_51/Conv2D_weights", "op": "Const", "attr": {"dtype": {"type": "DT_FLOAT"}, "value": {"tensor": {"dtype": "DT_FLOAT", "tensorShape": {"dim": [{"size": "3"}, {"size": "3"}, {"size": "171"}, {"size": "80"}]}}}}}, {"name": "StatefulPartitionedCall/matting_network_wrapper/StatefulPartitionedCall/recurrent_decoder/upsampling_block/sequential_16/conv2d_51/Conv2D_bn_offset", "op": "Const", "attr": {"dtype": {"type": "DT_FLOAT"}, "value": {"tensor": {"dtype": "DT_FLOAT", "tensorShape": {"dim": [{"size": "80"}]}}}}}, {"name": "StatefulPartitionedCall/matting_network_wrapper/StatefulPartitionedCall/recurrent_decoder/upsampling_block_1/sequential_17/conv2d_54/Conv2D_weights", "op": "Const", "attr": {"dtype": {"type": "DT_FLOAT"}, "value": {"tensor": {"dtype": "DT_FLOAT", "tensorShape": {"dim": [{"size": "3"}, {"size": "3"}, {"size": "107"}, {"size": "40"}]}}}}}, {"name": "StatefulPartitionedCall/matting_network_wrapper/StatefulPartitionedCall/recurrent_decoder/upsampling_block_1/sequential_17/conv2d_54/Conv2D_bn_offset", "op": "Const", "attr": {"dtype": {"type": "DT_FLOAT"}, "value": {"tensor": {"dtype": "DT_FLOAT", "tensorShape": {"dim": [{"size": "40"}]}}}}}, {"name": "StatefulPartitionedCall/matting_network_wrapper/StatefulPartitionedCall/recurrent_decoder/upsampling_block_2/sequential_18/conv2d_57/Conv2D_weights", "op": "Const", "attr": {"value": {"tensor": {"dtype": "DT_FLOAT", "tensorShape": {"dim": [{"size": "3"}, {"size": "3"}, {"size": "59"}, {"size": "32"}]}}}, "dtype": {"type": "DT_FLOAT"}}}, {"name": "StatefulPartitionedCall/matting_network_wrapper/StatefulPartitionedCall/recurrent_decoder/upsampling_block_2/sequential_18/conv2d_57/Conv2D_bn_offset", "op": "Const", "attr": {"dtype": {"type": "DT_FLOAT"}, "value": {"tensor": {"dtype": "DT_FLOAT", "tensorShape": {"dim": [{"size": "32"}]}}}}}, {"name": "StatefulPartitionedCall/matting_network_wrapper/StatefulPartitionedCall/recurrent_decoder/output_block/sequential_19/conv2d_60/Conv2D_weights", "op": "Const", "attr": {"dtype": {"type": "DT_FLOAT"}, "value": {"tensor": {"dtype": "DT_FLOAT", "tensorShape": {"dim": [{"size": "3"}, {"size": "3"}, {"size": "35"}, {"size": "16"}]}}}}}, {"name": "StatefulPartitionedCall/matting_network_wrapper/StatefulPartitionedCall/recurrent_decoder/output_block/sequential_19/conv2d_60/Conv2D_bn_offset", "op": "Const", "attr": {"value": {"tensor": {"dtype": "DT_FLOAT", "tensorShape": {"dim": [{"size": "16"}]}}}, "dtype": {"type": "DT_FLOAT"}}}, {"name": "StatefulPartitionedCall/matting_network_wrapper/StatefulPartitionedCall/recurrent_decoder/output_block/sequential_19/conv2d_61/Conv2D_weights", "op": "Const", "attr": {"value": {"tensor": {"dtype": "DT_FLOAT", "tensorShape": {"dim": [{"size": "3"}, {"size": "3"}, {"size": "16"}, {"size": "16"}]}}}, "dtype": {"type": "DT_FLOAT"}}}, {"name": "StatefulPartitionedCall/matting_network_wrapper/StatefulPartitionedCall/recurrent_decoder/output_block/sequential_19/conv2d_61/Conv2D_bn_offset", "op": "Const", "attr": {"dtype": {"type": "DT_FLOAT"}, "value": {"tensor": {"dtype": "DT_FLOAT", "tensorShape": {"dim": [{"size": "16"}]}}}}}, {"name": "Func/StatefulPartitionedCall/matting_network_wrapper/StatefulPartitionedCall/input_control_node/_326", "op": "NoOp", "input": ["^src", "^r1i", "^r4i", "^r3i", "^r2i", "^downsample_ratio"]}, {"name": "StatefulPartitionedCall/matting_network_wrapper/StatefulPartitionedCall/clip_by_value/Minimum/y", "op": "Const", "input": ["^Func/StatefulPartitionedCall/matting_network_wrapper/StatefulPartitionedCall/input_control_node/_326"], "attr": {"dtype": {"type": "DT_FLOAT"}, "value": {"tensor": {"dtype": "DT_FLOAT", "tensorShape": {}}}}}, {"name": "StatefulPartitionedCall/matting_network_wrapper/StatefulPartitionedCall/clip_by_value/y", "op": "Const", "input": ["^Func/StatefulPartitionedCall/matting_network_wrapper/StatefulPartitionedCall/input_control_node/_326"], "attr": {"dtype": {"type": "DT_FLOAT"}, "value": {"tensor": {"dtype": "DT_FLOAT", "tensorShape": {}}}}}, {"name": "StatefulPartitionedCall/matting_network_wrapper/StatefulPartitionedCall/clip_by_value_1/Minimum/y", "op": "Const", "input": ["^Func/StatefulPartitionedCall/matting_network_wrapper/StatefulPartitionedCall/input_control_node/_326"], "attr": {"dtype": {"type": "DT_FLOAT"}, "value": {"tensor": {"dtype": "DT_FLOAT", "tensorShape": {}}}}}, {"name": "StatefulPartitionedCall/matting_network_wrapper/StatefulPartitionedCall/clip_by_value_1/y", "op": "Const", "input": ["^Func/StatefulPartitionedCall/matting_network_wrapper/StatefulPartitionedCall/input_control_node/_326"], "attr": {"dtype": {"type": "DT_FLOAT"}, "value": {"tensor": {"dtype": "DT_FLOAT", "tensorShape": {}}}}}, {"name": "StatefulPartitionedCall/matting_network_wrapper/StatefulPartitionedCall/x_1", "op": "Const", "input": ["^Func/StatefulPartitionedCall/matting_network_wrapper/StatefulPartitionedCall/input_control_node/_326"], "attr": {"value": {"tensor": {"dtype": "DT_FLOAT", "tensorShape": {}}}, "dtype": {"type": "DT_FLOAT"}}}, {"name": "Func/StatefulPartitionedCall/matting_network_wrapper/StatefulPartitionedCall/input/_644", "op": "Const", "input": ["^Func/StatefulPartitionedCall/matting_network_wrapper/StatefulPartitionedCall/input_control_node/_326"], "attr": {"dtype": {"type": "DT_FLOAT"}, "value": {"tensor": {"dtype": "DT_FLOAT", "tensorShape": {"dim": [{"size": "3"}, {"size": "1"}, {"size": "4"}, {"size": "1"}]}}}}}, {"name": "Func/StatefulPartitionedCall/matting_network_wrapper/StatefulPartitionedCall/input/_645", "op": "Const", "input": ["^Func/StatefulPartitionedCall/matting_network_wrapper/StatefulPartitionedCall/input_control_node/_326"], "attr": {"value": {"tensor": {"dtype": "DT_FLOAT", "tensorShape": {"dim": [{"size": "1"}, {"size": "3"}, {"size": "4"}, {"size": "1"}]}}}, "dtype": {"type": "DT_FLOAT"}}}, {"name": "StatefulPartitionedCall/matting_network_wrapper/StatefulPartitionedCall/recurrent_decoder/output_block/crop_to_bounding_box/stack", "op": "Const", "input": ["^Func/StatefulPartitionedCall/matting_network_wrapper/StatefulPartitionedCall/input_control_node/_326"], "attr": {"value": {"tensor": {"dtype": "DT_INT32", "tensorShape": {"dim": [{"size": "4"}]}}}, "dtype": {"type": "DT_INT32"}}}, {"name": "StatefulPartitionedCall/matting_network_wrapper/StatefulPartitionedCall/recurrent_decoder/output_block/crop_to_bounding_box/stack_1/0", "op": "Const", "input": ["^Func/StatefulPartitionedCall/matting_network_wrapper/StatefulPartitionedCall/input_control_node/_326"], "attr": {"dtype": {"type": "DT_INT32"}, "value": {"tensor": {"dtype": "DT_INT32", "tensorShape": {}}}}}, {"name": "StatefulPartitionedCall/matting_network_wrapper/StatefulPartitionedCall/recurrent_decoder/output_block/crop_to_bounding_box/stack_1/3", "op": "Const", "input": ["^Func/StatefulPartitionedCall/matting_network_wrapper/StatefulPartitionedCall/input_control_node/_326"], "attr": {"value": {"tensor": {"dtype": "DT_INT32", "tensorShape": {}}}, "dtype": {"type": "DT_INT32"}}}, {"name": "StatefulPartitionedCall/matting_network_wrapper/StatefulPartitionedCall/recurrent_decoder/output_block/strided_slice/stack", "op": "Const", "input": ["^Func/StatefulPartitionedCall/matting_network_wrapper/StatefulPartitionedCall/input_control_node/_326"], "attr": {"dtype": {"type": "DT_INT32"}, "value": {"tensor": {"dtype": "DT_INT32", "tensorShape": {"dim": [{"size": "1"}]}}}}}, {"name": "StatefulPartitionedCall/matting_network_wrapper/StatefulPartitionedCall/recurrent_decoder/output_block/strided_slice/stack_1", "op": "Const", "input": ["^Func/StatefulPartitionedCall/matting_network_wrapper/StatefulPartitionedCall/input_control_node/_326"], "attr": {"value": {"tensor": {"dtype": "DT_INT32", "tensorShape": {"dim": [{"size": "1"}]}}}, "dtype": {"type": "DT_INT32"}}}, {"name": "StatefulPartitionedCall/matting_network_wrapper/StatefulPartitionedCall/recurrent_decoder/output_block/strided_slice/stack_2", "op": "Const", "input": ["^Func/StatefulPartitionedCall/matting_network_wrapper/StatefulPartitionedCall/input_control_node/_326"], "attr": {"dtype": {"type": "DT_INT32"}, "value": {"tensor": {"dtype": "DT_INT32", "tensorShape": {"dim": [{"size": "1"}]}}}}}, {"name": "StatefulPartitionedCall/matting_network_wrapper/StatefulPartitionedCall/recurrent_decoder/output_block/strided_slice_1/stack", "op": "Const", "input": ["^Func/StatefulPartitionedCall/matting_network_wrapper/StatefulPartitionedCall/input_control_node/_326"], "attr": {"value": {"tensor": {"dtype": "DT_INT32", "tensorShape": {"dim": [{"size": "1"}]}}}, "dtype": {"type": "DT_INT32"}}}, {"name": "StatefulPartitionedCall/matting_network_wrapper/StatefulPartitionedCall/recurrent_decoder/output_block/strided_slice_1/stack_1", "op": "Const", "input": ["^Func/StatefulPartitionedCall/matting_network_wrapper/StatefulPartitionedCall/input_control_node/_326"], "attr": {"dtype": {"type": "DT_INT32"}, "value": {"tensor": {"dtype": "DT_INT32", "tensorShape": {"dim": [{"size": "1"}]}}}}}, {"name": "StatefulPartitionedCall/matting_network_wrapper/StatefulPartitionedCall/recurrent_decoder/output_block/strided_slice_1/stack_2", "op": "Const", "input": ["^Func/StatefulPartitionedCall/matting_network_wrapper/StatefulPartitionedCall/input_control_node/_326"], "attr": {"value": {"tensor": {"dtype": "DT_INT32", "tensorShape": {"dim": [{"size": "1"}]}}}, "dtype": {"type": "DT_INT32"}}}, {"name": "StatefulPartitionedCall/matting_network_wrapper/StatefulPartitionedCall/recurrent_decoder/upsampling_block_2/conv_gru_3/sub/x", "op": "Const", "input": ["^Func/StatefulPartitionedCall/matting_network_wrapper/StatefulPartitionedCall/input_control_node/_326"], "attr": {"value": {"tensor": {"dtype": "DT_FLOAT", "tensorShape": {}}}, "dtype": {"type": "DT_FLOAT"}}}, {"name": "StatefulPartitionedCall/matting_network_wrapper/StatefulPartitionedCall/recurrent_decoder/upsampling_block_2/conv_gru_3/split/split_dim", "op": "Const", "input": ["^Func/StatefulPartitionedCall/matting_network_wrapper/StatefulPartitionedCall/input_control_node/_326"], "attr": {"dtype": {"type": "DT_INT32"}, "value": {"tensor": {"dtype": "DT_INT32", "tensorShape": {}}}}}, {"name": "StatefulPartitionedCall/matting_network_wrapper/StatefulPartitionedCall/recurrent_decoder/upsampling_block_2/conv_gru_3/concat/axis", "op": "Const", "input": ["^Func/StatefulPartitionedCall/matting_network_wrapper/StatefulPartitionedCall/input_control_node/_326"], "attr": {"value": {"tensor": {"dtype": "DT_INT32", "tensorShape": {}}}, "dtype": {"type": "DT_INT32"}}}, {"name": "StatefulPartitionedCall/matting_network_wrapper/StatefulPartitionedCall/recurrent_decoder/upsampling_block_2/conv_gru_3/conv2d_58/Conv2D/ReadVariableOp", "op": "Const", "input": ["^Func/StatefulPartitionedCall/matting_network_wrapper/StatefulPartitionedCall/input_control_node/_326"], "attr": {"dtype": {"type": "DT_FLOAT"}, "value": {"tensor": {"dtype": "DT_FLOAT", "tensorShape": {"dim": [{"size": "3"}, {"size": "3"}, {"size": "32"}, {"size": "32"}]}}}}}, {"name": "StatefulPartitionedCall/matting_network_wrapper/StatefulPartitionedCall/recurrent_decoder/upsampling_block_2/conv_gru_3/conv2d_58/BiasAdd/ReadVariableOp", "op": "Const", "input": ["^Func/StatefulPartitionedCall/matting_network_wrapper/StatefulPartitionedCall/input_control_node/_326"], "attr": {"dtype": {"type": "DT_FLOAT"}, "value": {"tensor": {"dtype": "DT_FLOAT", "tensorShape": {"dim": [{"size": "32"}]}}}}}, {"name": "StatefulPartitionedCall/matting_network_wrapper/StatefulPartitionedCall/recurrent_decoder/upsampling_block_2/split/split_dim", "op": "Const", "input": ["^Func/StatefulPartitionedCall/matting_network_wrapper/StatefulPartitionedCall/input_control_node/_326"], "attr": {"dtype": {"type": "DT_INT32"}, "value": {"tensor": {"dtype": "DT_INT32", "tensorShape": {}}}}}, {"name": "StatefulPartitionedCall/matting_network_wrapper/StatefulPartitionedCall/recurrent_decoder/upsampling_block_1/conv_gru_2/sub/x", "op": "Const", "input": ["^Func/StatefulPartitionedCall/matting_network_wrapper/StatefulPartitionedCall/input_control_node/_326"], "attr": {"dtype": {"type": "DT_FLOAT"}, "value": {"tensor": {"dtype": "DT_FLOAT", "tensorShape": {}}}}}, {"name": "StatefulPartitionedCall/matting_network_wrapper/StatefulPartitionedCall/recurrent_decoder/upsampling_block_1/conv_gru_2/split/split_dim", "op": "Const", "input": ["^Func/StatefulPartitionedCall/matting_network_wrapper/StatefulPartitionedCall/input_control_node/_326"], "attr": {"dtype": {"type": "DT_INT32"}, "value": {"tensor": {"dtype": "DT_INT32", "tensorShape": {}}}}}, {"name": "StatefulPartitionedCall/matting_network_wrapper/StatefulPartitionedCall/recurrent_decoder/upsampling_block_1/conv_gru_2/concat/axis", "op": "Const", "input": ["^Func/StatefulPartitionedCall/matting_network_wrapper/StatefulPartitionedCall/input_control_node/_326"], "attr": {"dtype": {"type": "DT_INT32"}, "value": {"tensor": {"dtype": "DT_INT32", "tensorShape": {}}}}}, {"name": "StatefulPartitionedCall/matting_network_wrapper/StatefulPartitionedCall/recurrent_decoder/upsampling_block_1/conv_gru_2/conv2d_55/Conv2D/ReadVariableOp", "op": "Const", "input": ["^Func/StatefulPartitionedCall/matting_network_wrapper/StatefulPartitionedCall/input_control_node/_326"], "attr": {"dtype": {"type": "DT_FLOAT"}, "value": {"tensor": {"dtype": "DT_FLOAT", "tensorShape": {"dim": [{"size": "3"}, {"size": "3"}, {"size": "40"}, {"size": "40"}]}}}}}, {"name": "StatefulPartitionedCall/matting_network_wrapper/StatefulPartitionedCall/recurrent_decoder/upsampling_block_1/conv_gru_2/conv2d_55/BiasAdd/ReadVariableOp", "op": "Const", "input": ["^Func/StatefulPartitionedCall/matting_network_wrapper/StatefulPartitionedCall/input_control_node/_326"], "attr": {"value": {"tensor": {"dtype": "DT_FLOAT", "tensorShape": {"dim": [{"size": "40"}]}}}, "dtype": {"type": "DT_FLOAT"}}}, {"name": "StatefulPartitionedCall/matting_network_wrapper/StatefulPartitionedCall/recurrent_decoder/upsampling_block_1/split/split_dim", "op": "Const", "input": ["^Func/StatefulPartitionedCall/matting_network_wrapper/StatefulPartitionedCall/input_control_node/_326"], "attr": {"dtype": {"type": "DT_INT32"}, "value": {"tensor": {"dtype": "DT_INT32", "tensorShape": {}}}}}, {"name": "StatefulPartitionedCall/matting_network_wrapper/StatefulPartitionedCall/recurrent_decoder/upsampling_block/conv_gru_1/sub/x", "op": "Const", "input": ["^Func/StatefulPartitionedCall/matting_network_wrapper/StatefulPartitionedCall/input_control_node/_326"], "attr": {"value": {"tensor": {"dtype": "DT_FLOAT", "tensorShape": {}}}, "dtype": {"type": "DT_FLOAT"}}}, {"name": "StatefulPartitionedCall/matting_network_wrapper/StatefulPartitionedCall/recurrent_decoder/upsampling_block/conv_gru_1/split/split_dim", "op": "Const", "input": ["^Func/StatefulPartitionedCall/matting_network_wrapper/StatefulPartitionedCall/input_control_node/_326"], "attr": {"dtype": {"type": "DT_INT32"}, "value": {"tensor": {"dtype": "DT_INT32", "tensorShape": {}}}}}, {"name": "StatefulPartitionedCall/matting_network_wrapper/StatefulPartitionedCall/recurrent_decoder/upsampling_block/conv_gru_1/concat/axis", "op": "Const", "input": ["^Func/StatefulPartitionedCall/matting_network_wrapper/StatefulPartitionedCall/input_control_node/_326"], "attr": {"value": {"tensor": {"dtype": "DT_INT32", "tensorShape": {}}}, "dtype": {"type": "DT_INT32"}}}, {"name": "StatefulPartitionedCall/matting_network_wrapper/StatefulPartitionedCall/recurrent_decoder/upsampling_block/conv_gru_1/conv2d_52/Conv2D/ReadVariableOp", "op": "Const", "input": ["^Func/StatefulPartitionedCall/matting_network_wrapper/StatefulPartitionedCall/input_control_node/_326"], "attr": {"dtype": {"type": "DT_FLOAT"}, "value": {"tensor": {"dtype": "DT_FLOAT", "tensorShape": {"dim": [{"size": "3"}, {"size": "3"}, {"size": "80"}, {"size": "80"}]}}}}}, {"name": "StatefulPartitionedCall/matting_network_wrapper/StatefulPartitionedCall/recurrent_decoder/upsampling_block/conv_gru_1/conv2d_52/BiasAdd/ReadVariableOp", "op": "Const", "input": ["^Func/StatefulPartitionedCall/matting_network_wrapper/StatefulPartitionedCall/input_control_node/_326"], "attr": {"value": {"tensor": {"dtype": "DT_FLOAT", "tensorShape": {"dim": [{"size": "80"}]}}}, "dtype": {"type": "DT_FLOAT"}}}, {"name": "StatefulPartitionedCall/matting_network_wrapper/StatefulPartitionedCall/recurrent_decoder/upsampling_block/split/split_dim", "op": "Const", "input": ["^Func/StatefulPartitionedCall/matting_network_wrapper/StatefulPartitionedCall/input_control_node/_326"], "attr": {"value": {"tensor": {"dtype": "DT_INT32", "tensorShape": {}}}, "dtype": {"type": "DT_INT32"}}}, {"name": "StatefulPartitionedCall/matting_network_wrapper/StatefulPartitionedCall/recurrent_decoder/bottleneck_block/conv_gru/sub/x", "op": "Const", "input": ["^Func/StatefulPartitionedCall/matting_network_wrapper/StatefulPartitionedCall/input_control_node/_326"], "attr": {"dtype": {"type": "DT_FLOAT"}, "value": {"tensor": {"dtype": "DT_FLOAT", "tensorShape": {}}}}}, {"name": "StatefulPartitionedCall/matting_network_wrapper/StatefulPartitionedCall/recurrent_decoder/bottleneck_block/conv_gru/split/split_dim", "op": "Const", "input": ["^Func/StatefulPartitionedCall/matting_network_wrapper/StatefulPartitionedCall/input_control_node/_326"], "attr": {"dtype": {"type": "DT_INT32"}, "value": {"tensor": {"dtype": "DT_INT32", "tensorShape": {}}}}}, {"name": "StatefulPartitionedCall/matting_network_wrapper/StatefulPartitionedCall/recurrent_decoder/bottleneck_block/conv_gru/concat/axis", "op": "Const", "input": ["^Func/StatefulPartitionedCall/matting_network_wrapper/StatefulPartitionedCall/input_control_node/_326"], "attr": {"dtype": {"type": "DT_INT32"}, "value": {"tensor": {"dtype": "DT_INT32", "tensorShape": {}}}}}, {"name": "StatefulPartitionedCall/matting_network_wrapper/StatefulPartitionedCall/recurrent_decoder/bottleneck_block/conv_gru/conv2d_49/Conv2D/ReadVariableOp", "op": "Const", "input": ["^Func/StatefulPartitionedCall/matting_network_wrapper/StatefulPartitionedCall/input_control_node/_326"], "attr": {"dtype": {"type": "DT_FLOAT"}, "value": {"tensor": {"dtype": "DT_FLOAT", "tensorShape": {"dim": [{"size": "3"}, {"size": "3"}, {"size": "128"}, {"size": "128"}]}}}}}, {"name": "StatefulPartitionedCall/matting_network_wrapper/StatefulPartitionedCall/recurrent_decoder/bottleneck_block/conv_gru/conv2d_49/BiasAdd/ReadVariableOp", "op": "Const", "input": ["^Func/StatefulPartitionedCall/matting_network_wrapper/StatefulPartitionedCall/input_control_node/_326"], "attr": {"value": {"tensor": {"dtype": "DT_FLOAT", "tensorShape": {"dim": [{"size": "128"}]}}}, "dtype": {"type": "DT_FLOAT"}}}, {"name": "StatefulPartitionedCall/matting_network_wrapper/StatefulPartitionedCall/recurrent_decoder/bottleneck_block/split/split_dim", "op": "Const", "input": ["^Func/StatefulPartitionedCall/matting_network_wrapper/StatefulPartitionedCall/input_control_node/_326"], "attr": {"dtype": {"type": "DT_INT32"}, "value": {"tensor": {"dtype": "DT_INT32", "tensorShape": {}}}}}, {"name": "ConstantFolding/StatefulPartitionedCall/matting_network_wrapper/StatefulPartitionedCall/mobile_net_v3_encoder/conv_bn_activation_45/hardswish_19/truediv_recip", "op": "Const", "input": ["^Func/StatefulPartitionedCall/matting_network_wrapper/StatefulPartitionedCall/input_control_node/_326"], "attr": {"value": {"tensor": {"dtype": "DT_FLOAT", "tensorShape": {}}}, "dtype": {"type": "DT_FLOAT"}}}, {"name": "ConstantFolding/StatefulPartitionedCall/matting_network_wrapper/StatefulPartitionedCall/mobile_net_v3_encoder/inverted_residual_14/sequential_14/squeeze_excitation_7/truediv_recip", "op": "Const", "input": ["^Func/StatefulPartitionedCall/matting_network_wrapper/StatefulPartitionedCall/input_control_node/_326"], "attr": {"value": {"tensor": {"dtype": "DT_FLOAT", "tensorShape": {}}}, "dtype": {"type": "DT_FLOAT"}}}, {"name": "StatefulPartitionedCall/matting_network_wrapper/StatefulPartitionedCall/mobile_net_v3_encoder/inverted_residual_14/sequential_14/squeeze_excitation_7/Mean/reduction_indices", "op": "Const", "input": ["^Func/StatefulPartitionedCall/matting_network_wrapper/StatefulPartitionedCall/input_control_node/_326"], "attr": {"value": {"tensor": {"dtype": "DT_INT32", "tensorShape": {"dim": [{"size": "2"}]}}}, "dtype": {"type": "DT_INT32"}}}, {"name": "StatefulPartitionedCall/matting_network_wrapper/StatefulPartitionedCall/mobile_net_v3_encoder/inverted_residual_14/sequential_14/squeeze_excitation_7/conv2d_43/Conv2D/ReadVariableOp", "op": "Const", "input": ["^Func/StatefulPartitionedCall/matting_network_wrapper/StatefulPartitionedCall/input_control_node/_326"], "attr": {"dtype": {"type": "DT_FLOAT"}, "value": {"tensor": {"dtype": "DT_FLOAT", "tensorShape": {"dim": [{"size": "1"}, {"size": "1"}, {"size": "960"}, {"size": "240"}]}}}}}, {"name": "StatefulPartitionedCall/matting_network_wrapper/StatefulPartitionedCall/mobile_net_v3_encoder/inverted_residual_14/sequential_14/squeeze_excitation_7/conv2d_43/BiasAdd/ReadVariableOp", "op": "Const", "input": ["^Func/StatefulPartitionedCall/matting_network_wrapper/StatefulPartitionedCall/input_control_node/_326"], "attr": {"value": {"tensor": {"dtype": "DT_FLOAT", "tensorShape": {"dim": [{"size": "240"}]}}}, "dtype": {"type": "DT_FLOAT"}}}, {"name": "StatefulPartitionedCall/matting_network_wrapper/StatefulPartitionedCall/mobile_net_v3_encoder/inverted_residual_14/sequential_14/squeeze_excitation_7/conv2d_44/Conv2D/ReadVariableOp", "op": "Const", "input": ["^Func/StatefulPartitionedCall/matting_network_wrapper/StatefulPartitionedCall/input_control_node/_326"], "attr": {"value": {"tensor": {"dtype": "DT_FLOAT", "tensorShape": {"dim": [{"size": "1"}, {"size": "1"}, {"size": "240"}, {"size": "960"}]}}}, "dtype": {"type": "DT_FLOAT"}}}, {"name": "StatefulPartitionedCall/matting_network_wrapper/StatefulPartitionedCall/mobile_net_v3_encoder/inverted_residual_14/sequential_14/squeeze_excitation_7/conv2d_44/BiasAdd/ReadVariableOp", "op": "Const", "input": ["^Func/StatefulPartitionedCall/matting_network_wrapper/StatefulPartitionedCall/input_control_node/_326"], "attr": {"value": {"tensor": {"dtype": "DT_FLOAT", "tensorShape": {"dim": [{"size": "960"}]}}}, "dtype": {"type": "DT_FLOAT"}}}, {"name": "StatefulPartitionedCall/matting_network_wrapper/StatefulPartitionedCall/mobile_net_v3_encoder/inverted_residual_14/sequential_14/squeeze_excitation_7/add/y", "op": "Const", "input": ["^Func/StatefulPartitionedCall/matting_network_wrapper/StatefulPartitionedCall/input_control_node/_326"], "attr": {"dtype": {"type": "DT_FLOAT"}, "value": {"tensor": {"dtype": "DT_FLOAT", "tensorShape": {}}}}}, {"name": "ConstantFolding/StatefulPartitionedCall/matting_network_wrapper/StatefulPartitionedCall/mobile_net_v3_encoder/inverted_residual_14/sequential_14/conv_bn_activation_43/hardswish_18/truediv_recip", "op": "Const", "input": ["^Func/StatefulPartitionedCall/matting_network_wrapper/StatefulPartitionedCall/input_control_node/_326"], "attr": {"dtype": {"type": "DT_FLOAT"}, "value": {"tensor": {"dtype": "DT_FLOAT", "tensorShape": {}}}}}, {"name": "StatefulPartitionedCall/matting_network_wrapper/StatefulPartitionedCall/mobile_net_v3_encoder/inverted_residual_14/sequential_14/conv_bn_activation_43/depthwise_conv2d_14/depthwise/SpaceToBatchND/block_shape", "op": "Const", "input": ["^Func/StatefulPartitionedCall/matting_network_wrapper/StatefulPartitionedCall/input_control_node/_326"], "attr": {"dtype": {"type": "DT_INT32"}, "value": {"tensor": {"dtype": "DT_INT32", "tensorShape": {"dim": [{"size": "2"}]}}}}}, {"name": "StatefulPartitionedCall/matting_network_wrapper/StatefulPartitionedCall/mobile_net_v3_encoder/inverted_residual_14/sequential_14/conv_bn_activation_43/depthwise_conv2d_14/depthwise/required_space_to_batch_paddings/strided_slice_2", "op": "Const", "input": ["^Func/StatefulPartitionedCall/matting_network_wrapper/StatefulPartitionedCall/input_control_node/_326"], "attr": {"dtype": {"type": "DT_INT32"}, "value": {"tensor": {"dtype": "DT_INT32", "tensorShape": {}}}}}, {"name": "StatefulPartitionedCall/matting_network_wrapper/StatefulPartitionedCall/mobile_net_v3_encoder/inverted_residual_14/sequential_14/conv_bn_activation_43/depthwise_conv2d_14/depthwise/required_space_to_batch_paddings/strided_slice_3/stack", "op": "Const", "input": ["^Func/StatefulPartitionedCall/matting_network_wrapper/StatefulPartitionedCall/input_control_node/_326"], "attr": {"value": {"tensor": {"dtype": "DT_INT32", "tensorShape": {"dim": [{"size": "1"}]}}}, "dtype": {"type": "DT_INT32"}}}, {"name": "StatefulPartitionedCall/matting_network_wrapper/StatefulPartitionedCall/mobile_net_v3_encoder/inverted_residual_14/sequential_14/conv_bn_activation_43/depthwise_conv2d_14/depthwise/required_space_to_batch_paddings/strided_slice_3/stack_1", "op": "Const", "input": ["^Func/StatefulPartitionedCall/matting_network_wrapper/StatefulPartitionedCall/input_control_node/_326"], "attr": {"dtype": {"type": "DT_INT32"}, "value": {"tensor": {"dtype": "DT_INT32", "tensorShape": {"dim": [{"size": "1"}]}}}}}, {"name": "StatefulPartitionedCall/matting_network_wrapper/StatefulPartitionedCall/mobile_net_v3_encoder/inverted_residual_14/sequential_14/conv_bn_activation_43/depthwise_conv2d_14/depthwise/required_space_to_batch_paddings/strided_slice_3/stack_2", "op": "Const", "input": ["^Func/StatefulPartitionedCall/matting_network_wrapper/StatefulPartitionedCall/input_control_node/_326"], "attr": {"value": {"tensor": {"dtype": "DT_INT32", "tensorShape": {"dim": [{"size": "1"}]}}}, "dtype": {"type": "DT_INT32"}}}, {"name": "StatefulPartitionedCall/matting_network_wrapper/StatefulPartitionedCall/mobile_net_v3_encoder/inverted_residual_14/sequential_14/conv_bn_activation_43/depthwise_conv2d_14/depthwise/required_space_to_batch_paddings/strided_slice_4", "op": "Const", "input": ["^Func/StatefulPartitionedCall/matting_network_wrapper/StatefulPartitionedCall/input_control_node/_326"], "attr": {"value": {"tensor": {"dtype": "DT_INT32", "tensorShape": {}}}, "dtype": {"type": "DT_INT32"}}}, {"name": "StatefulPartitionedCall/matting_network_wrapper/StatefulPartitionedCall/mobile_net_v3_encoder/inverted_residual_14/sequential_14/conv_bn_activation_43/depthwise_conv2d_14/depthwise/required_space_to_batch_paddings/strided_slice_5/stack", "op": "Const", "input": ["^Func/StatefulPartitionedCall/matting_network_wrapper/StatefulPartitionedCall/input_control_node/_326"], "attr": {"value": {"tensor": {"dtype": "DT_INT32", "tensorShape": {"dim": [{"size": "1"}]}}}, "dtype": {"type": "DT_INT32"}}}, {"name": "StatefulPartitionedCall/matting_network_wrapper/StatefulPartitionedCall/mobile_net_v3_encoder/inverted_residual_14/sequential_14/conv_bn_activation_43/depthwise_conv2d_14/depthwise/required_space_to_batch_paddings/strided_slice_5/stack_1", "op": "Const", "input": ["^Func/StatefulPartitionedCall/matting_network_wrapper/StatefulPartitionedCall/input_control_node/_326"], "attr": {"dtype": {"type": "DT_INT32"}, "value": {"tensor": {"dtype": "DT_INT32", "tensorShape": {"dim": [{"size": "1"}]}}}}}, {"name": "StatefulPartitionedCall/matting_network_wrapper/StatefulPartitionedCall/mobile_net_v3_encoder/inverted_residual_14/sequential_14/conv_bn_activation_43/depthwise_conv2d_14/depthwise/required_space_to_batch_paddings/strided_slice_5/stack_2", "op": "Const", "input": ["^Func/StatefulPartitionedCall/matting_network_wrapper/StatefulPartitionedCall/input_control_node/_326"], "attr": {"value": {"tensor": {"dtype": "DT_INT32", "tensorShape": {"dim": [{"size": "1"}]}}}, "dtype": {"type": "DT_INT32"}}}, {"name": "StatefulPartitionedCall/matting_network_wrapper/StatefulPartitionedCall/mobile_net_v3_encoder/inverted_residual_14/sequential_14/conv_bn_activation_43/depthwise_conv2d_14/depthwise/ReadVariableOp", "op": "Const", "input": ["^Func/StatefulPartitionedCall/matting_network_wrapper/StatefulPartitionedCall/input_control_node/_326"], "attr": {"dtype": {"type": "DT_FLOAT"}, "value": {"tensor": {"dtype": "DT_FLOAT", "tensorShape": {"dim": [{"size": "5"}, {"size": "5"}, {"size": "960"}, {"size": "1"}]}}}}}, {"name": "StatefulPartitionedCall/matting_network_wrapper/StatefulPartitionedCall/mobile_net_v3_encoder/inverted_residual_14/sequential_14/conv_bn_activation_43/depthwise_conv2d_14/depthwise/BatchToSpaceND/block_shape", "op": "Const", "input": ["^Func/StatefulPartitionedCall/matting_network_wrapper/StatefulPartitionedCall/input_control_node/_326"], "attr": {"value": {"tensor": {"dtype": "DT_INT32", "tensorShape": {"dim": [{"size": "2"}]}}}, "dtype": {"type": "DT_INT32"}}}, {"name": "StatefulPartitionedCall/matting_network_wrapper/StatefulPartitionedCall/mobile_net_v3_encoder/inverted_residual_14/sequential_14/conv_bn_activation_43/depthwise_conv2d_14/depthwise/required_space_to_batch_paddings/crops/0/0", "op": "Const", "input": ["^Func/StatefulPartitionedCall/matting_network_wrapper/StatefulPartitionedCall/input_control_node/_326"], "attr": {"value": {"tensor": {"dtype": "DT_INT32", "tensorShape": {}}}, "dtype": {"type": "DT_INT32"}}}, {"name": "StatefulPartitionedCall/matting_network_wrapper/StatefulPartitionedCall/mobile_net_v3_encoder/inverted_residual_14/sequential_14/conv_bn_activation_43/depthwise_conv2d_14/depthwise/required_space_to_batch_paddings/strided_slice_6/stack", "op": "Const", "input": ["^Func/StatefulPartitionedCall/matting_network_wrapper/StatefulPartitionedCall/input_control_node/_326"], "attr": {"value": {"tensor": {"dtype": "DT_INT32", "tensorShape": {"dim": [{"size": "1"}]}}}, "dtype": {"type": "DT_INT32"}}}, {"name": "StatefulPartitionedCall/matting_network_wrapper/StatefulPartitionedCall/mobile_net_v3_encoder/inverted_residual_14/sequential_14/conv_bn_activation_43/depthwise_conv2d_14/depthwise/required_space_to_batch_paddings/strided_slice_6/stack_1", "op": "Const", "input": ["^Func/StatefulPartitionedCall/matting_network_wrapper/StatefulPartitionedCall/input_control_node/_326"], "attr": {"value": {"tensor": {"dtype": "DT_INT32", "tensorShape": {"dim": [{"size": "1"}]}}}, "dtype": {"type": "DT_INT32"}}}, {"name": "StatefulPartitionedCall/matting_network_wrapper/StatefulPartitionedCall/mobile_net_v3_encoder/inverted_residual_14/sequential_14/conv_bn_activation_43/depthwise_conv2d_14/depthwise/required_space_to_batch_paddings/strided_slice_6/stack_2", "op": "Const", "input": ["^Func/StatefulPartitionedCall/matting_network_wrapper/StatefulPartitionedCall/input_control_node/_326"], "attr": {"dtype": {"type": "DT_INT32"}, "value": {"tensor": {"dtype": "DT_INT32", "tensorShape": {"dim": [{"size": "1"}]}}}}}, {"name": "StatefulPartitionedCall/matting_network_wrapper/StatefulPartitionedCall/mobile_net_v3_encoder/inverted_residual_14/sequential_14/conv_bn_activation_43/depthwise_conv2d_14/depthwise/required_space_to_batch_paddings/crops/1/0", "op": "Const", "input": ["^Func/StatefulPartitionedCall/matting_network_wrapper/StatefulPartitionedCall/input_control_node/_326"], "attr": {"dtype": {"type": "DT_INT32"}, "value": {"tensor": {"dtype": "DT_INT32", "tensorShape": {}}}}}, {"name": "StatefulPartitionedCall/matting_network_wrapper/StatefulPartitionedCall/mobile_net_v3_encoder/inverted_residual_14/sequential_14/conv_bn_activation_43/depthwise_conv2d_14/depthwise/strided_slice/stack", "op": "Const", "input": ["^Func/StatefulPartitionedCall/matting_network_wrapper/StatefulPartitionedCall/input_control_node/_326"], "attr": {"value": {"tensor": {"dtype": "DT_INT32", "tensorShape": {"dim": [{"size": "1"}]}}}, "dtype": {"type": "DT_INT32"}}}, {"name": "StatefulPartitionedCall/matting_network_wrapper/StatefulPartitionedCall/mobile_net_v3_encoder/inverted_residual_14/sequential_14/conv_bn_activation_43/depthwise_conv2d_14/depthwise/strided_slice/stack_1", "op": "Const", "input": ["^Func/StatefulPartitionedCall/matting_network_wrapper/StatefulPartitionedCall/input_control_node/_326"], "attr": {"dtype": {"type": "DT_INT32"}, "value": {"tensor": {"dtype": "DT_INT32", "tensorShape": {"dim": [{"size": "1"}]}}}}}, {"name": "StatefulPartitionedCall/matting_network_wrapper/StatefulPartitionedCall/mobile_net_v3_encoder/inverted_residual_14/sequential_14/conv_bn_activation_43/depthwise_conv2d_14/depthwise/strided_slice/stack_2", "op": "Const", "input": ["^Func/StatefulPartitionedCall/matting_network_wrapper/StatefulPartitionedCall/input_control_node/_326"], "attr": {"value": {"tensor": {"dtype": "DT_INT32", "tensorShape": {"dim": [{"size": "1"}]}}}, "dtype": {"type": "DT_INT32"}}}, {"name": "ConstantFolding/StatefulPartitionedCall/matting_network_wrapper/StatefulPartitionedCall/mobile_net_v3_encoder/inverted_residual_14/sequential_14/conv_bn_activation_42/hardswish_17/truediv_recip", "op": "Const", "input": ["^Func/StatefulPartitionedCall/matting_network_wrapper/StatefulPartitionedCall/input_control_node/_326"], "attr": {"dtype": {"type": "DT_FLOAT"}, "value": {"tensor": {"dtype": "DT_FLOAT", "tensorShape": {}}}}}, {"name": "StatefulPartitionedCall/matting_network_wrapper/StatefulPartitionedCall/mobile_net_v3_encoder/inverted_residual_14/sequential_14/conv_bn_activation_42/hardswish_17/add/y", "op": "Const", "input": ["^Func/StatefulPartitionedCall/matting_network_wrapper/StatefulPartitionedCall/input_control_node/_326"], "attr": {"dtype": {"type": "DT_FLOAT"}, "value": {"tensor": {"dtype": "DT_FLOAT", "tensorShape": {}}}}}, {"name": "StatefulPartitionedCall/matting_network_wrapper/StatefulPartitionedCall/mobile_net_v3_encoder/inverted_residual_14/sequential_14/conv_bn_activation_43/zero_padding2d_15/Pad/paddings", "op": "Const", "input": ["^Func/StatefulPartitionedCall/matting_network_wrapper/StatefulPartitionedCall/input_control_node/_326"], "attr": {"value": {"tensor": {"dtype": "DT_INT32", "tensorShape": {"dim": [{"size": "4"}, {"size": "2"}]}}}, "dtype": {"type": "DT_INT32"}}}, {"name": "StatefulPartitionedCall/matting_network_wrapper/StatefulPartitionedCall/mobile_net_v3_encoder/inverted_residual_14/sequential_14/conv_bn_activation_43/depthwise_conv2d_14/depthwise/strided_slice_1/stack", "op": "Const", "input": ["^Func/StatefulPartitionedCall/matting_network_wrapper/StatefulPartitionedCall/input_control_node/_326"], "attr": {"dtype": {"type": "DT_INT32"}, "value": {"tensor": {"dtype": "DT_INT32", "tensorShape": {"dim": [{"size": "1"}]}}}}}, {"name": "StatefulPartitionedCall/matting_network_wrapper/StatefulPartitionedCall/mobile_net_v3_encoder/inverted_residual_14/sequential_14/conv_bn_activation_43/depthwise_conv2d_14/depthwise/strided_slice_1/stack_1", "op": "Const", "input": ["^Func/StatefulPartitionedCall/matting_network_wrapper/StatefulPartitionedCall/input_control_node/_326"], "attr": {"dtype": {"type": "DT_INT32"}, "value": {"tensor": {"dtype": "DT_INT32", "tensorShape": {"dim": [{"size": "1"}]}}}}}, {"name": "StatefulPartitionedCall/matting_network_wrapper/StatefulPartitionedCall/mobile_net_v3_encoder/inverted_residual_14/sequential_14/conv_bn_activation_43/depthwise_conv2d_14/depthwise/strided_slice_1/stack_2", "op": "Const", "input": ["^Func/StatefulPartitionedCall/matting_network_wrapper/StatefulPartitionedCall/input_control_node/_326"], "attr": {"dtype": {"type": "DT_INT32"}, "value": {"tensor": {"dtype": "DT_INT32", "tensorShape": {"dim": [{"size": "1"}]}}}}}, {"name": "StatefulPartitionedCall/matting_network_wrapper/StatefulPartitionedCall/mobile_net_v3_encoder/inverted_residual_14/sequential_14/conv_bn_activation_43/depthwise_conv2d_14/depthwise/dilation_rate", "op": "Const", "input": ["^Func/StatefulPartitionedCall/matting_network_wrapper/StatefulPartitionedCall/input_control_node/_326"], "attr": {"value": {"tensor": {"dtype": "DT_INT32", "tensorShape": {"dim": [{"size": "2"}]}}}, "dtype": {"type": "DT_INT32"}}}, {"name": "StatefulPartitionedCall/matting_network_wrapper/StatefulPartitionedCall/mobile_net_v3_encoder/inverted_residual_14/sequential_14/conv_bn_activation_43/depthwise_conv2d_14/depthwise/required_space_to_batch_paddings/strided_slice_7/stack", "op": "Const", "input": ["^Func/StatefulPartitionedCall/matting_network_wrapper/StatefulPartitionedCall/input_control_node/_326"], "attr": {"dtype": {"type": "DT_INT32"}, "value": {"tensor": {"dtype": "DT_INT32", "tensorShape": {"dim": [{"size": "1"}]}}}}}, {"name": "StatefulPartitionedCall/matting_network_wrapper/StatefulPartitionedCall/mobile_net_v3_encoder/inverted_residual_14/sequential_14/conv_bn_activation_43/depthwise_conv2d_14/depthwise/required_space_to_batch_paddings/strided_slice_7/stack_1", "op": "Const", "input": ["^Func/StatefulPartitionedCall/matting_network_wrapper/StatefulPartitionedCall/input_control_node/_326"], "attr": {"dtype": {"type": "DT_INT32"}, "value": {"tensor": {"dtype": "DT_INT32", "tensorShape": {"dim": [{"size": "1"}]}}}}}, {"name": "StatefulPartitionedCall/matting_network_wrapper/StatefulPartitionedCall/mobile_net_v3_encoder/inverted_residual_14/sequential_14/conv_bn_activation_43/depthwise_conv2d_14/depthwise/required_space_to_batch_paddings/strided_slice_7/stack_2", "op": "Const", "input": ["^Func/StatefulPartitionedCall/matting_network_wrapper/StatefulPartitionedCall/input_control_node/_326"], "attr": {"dtype": {"type": "DT_INT32"}, "value": {"tensor": {"dtype": "DT_INT32", "tensorShape": {"dim": [{"size": "1"}]}}}}}, {"name": "StatefulPartitionedCall/matting_network_wrapper/StatefulPartitionedCall/mobile_net_v3_encoder/inverted_residual_14/sequential_14/conv_bn_activation_43/hardswish_18/add/y", "op": "Const", "input": ["^Func/StatefulPartitionedCall/matting_network_wrapper/StatefulPartitionedCall/input_control_node/_326"], "attr": {"dtype": {"type": "DT_FLOAT"}, "value": {"tensor": {"dtype": "DT_FLOAT", "tensorShape": {}}}}}, {"name": "ConstantFolding/StatefulPartitionedCall/matting_network_wrapper/StatefulPartitionedCall/mobile_net_v3_encoder/inverted_residual_13/sequential_13/squeeze_excitation_6/truediv_recip", "op": "Const", "input": ["^Func/StatefulPartitionedCall/matting_network_wrapper/StatefulPartitionedCall/input_control_node/_326"], "attr": {"value": {"tensor": {"dtype": "DT_FLOAT", "tensorShape": {}}}, "dtype": {"type": "DT_FLOAT"}}}, {"name": "StatefulPartitionedCall/matting_network_wrapper/StatefulPartitionedCall/mobile_net_v3_encoder/inverted_residual_13/sequential_13/squeeze_excitation_6/Mean/reduction_indices", "op": "Const", "input": ["^Func/StatefulPartitionedCall/matting_network_wrapper/StatefulPartitionedCall/input_control_node/_326"], "attr": {"dtype": {"type": "DT_INT32"}, "value": {"tensor": {"dtype": "DT_INT32", "tensorShape": {"dim": [{"size": "2"}]}}}}}, {"name": "StatefulPartitionedCall/matting_network_wrapper/StatefulPartitionedCall/mobile_net_v3_encoder/inverted_residual_13/sequential_13/squeeze_excitation_6/conv2d_39/Conv2D/ReadVariableOp", "op": "Const", "input": ["^Func/StatefulPartitionedCall/matting_network_wrapper/StatefulPartitionedCall/input_control_node/_326"], "attr": {"value": {"tensor": {"dtype": "DT_FLOAT", "tensorShape": {"dim": [{"size": "1"}, {"size": "1"}, {"size": "960"}, {"size": "240"}]}}}, "dtype": {"type": "DT_FLOAT"}}}, {"name": "StatefulPartitionedCall/matting_network_wrapper/StatefulPartitionedCall/mobile_net_v3_encoder/inverted_residual_13/sequential_13/squeeze_excitation_6/conv2d_39/BiasAdd/ReadVariableOp", "op": "Const", "input": ["^Func/StatefulPartitionedCall/matting_network_wrapper/StatefulPartitionedCall/input_control_node/_326"], "attr": {"dtype": {"type": "DT_FLOAT"}, "value": {"tensor": {"dtype": "DT_FLOAT", "tensorShape": {"dim": [{"size": "240"}]}}}}}, {"name": "StatefulPartitionedCall/matting_network_wrapper/StatefulPartitionedCall/mobile_net_v3_encoder/inverted_residual_13/sequential_13/squeeze_excitation_6/conv2d_40/Conv2D/ReadVariableOp", "op": "Const", "input": ["^Func/StatefulPartitionedCall/matting_network_wrapper/StatefulPartitionedCall/input_control_node/_326"], "attr": {"dtype": {"type": "DT_FLOAT"}, "value": {"tensor": {"dtype": "DT_FLOAT", "tensorShape": {"dim": [{"size": "1"}, {"size": "1"}, {"size": "240"}, {"size": "960"}]}}}}}, {"name": "StatefulPartitionedCall/matting_network_wrapper/StatefulPartitionedCall/mobile_net_v3_encoder/inverted_residual_13/sequential_13/squeeze_excitation_6/conv2d_40/BiasAdd/ReadVariableOp", "op": "Const", "input": ["^Func/StatefulPartitionedCall/matting_network_wrapper/StatefulPartitionedCall/input_control_node/_326"], "attr": {"dtype": {"type": "DT_FLOAT"}, "value": {"tensor": {"dtype": "DT_FLOAT", "tensorShape": {"dim": [{"size": "960"}]}}}}}, {"name": "StatefulPartitionedCall/matting_network_wrapper/StatefulPartitionedCall/mobile_net_v3_encoder/inverted_residual_13/sequential_13/squeeze_excitation_6/add/y", "op": "Const", "input": ["^Func/StatefulPartitionedCall/matting_network_wrapper/StatefulPartitionedCall/input_control_node/_326"], "attr": {"value": {"tensor": {"dtype": "DT_FLOAT", "tensorShape": {}}}, "dtype": {"type": "DT_FLOAT"}}}, {"name": "ConstantFolding/StatefulPartitionedCall/matting_network_wrapper/StatefulPartitionedCall/mobile_net_v3_encoder/inverted_residual_13/sequential_13/conv_bn_activation_40/hardswish_16/truediv_recip", "op": "Const", "input": ["^Func/StatefulPartitionedCall/matting_network_wrapper/StatefulPartitionedCall/input_control_node/_326"], "attr": {"dtype": {"type": "DT_FLOAT"}, "value": {"tensor": {"dtype": "DT_FLOAT", "tensorShape": {}}}}}, {"name": "StatefulPartitionedCall/matting_network_wrapper/StatefulPartitionedCall/mobile_net_v3_encoder/inverted_residual_13/sequential_13/conv_bn_activation_40/depthwise_conv2d_13/depthwise/SpaceToBatchND/block_shape", "op": "Const", "input": ["^Func/StatefulPartitionedCall/matting_network_wrapper/StatefulPartitionedCall/input_control_node/_326"], "attr": {"dtype": {"type": "DT_INT32"}, "value": {"tensor": {"dtype": "DT_INT32", "tensorShape": {"dim": [{"size": "2"}]}}}}}, {"name": "StatefulPartitionedCall/matting_network_wrapper/StatefulPartitionedCall/mobile_net_v3_encoder/inverted_residual_13/sequential_13/conv_bn_activation_40/depthwise_conv2d_13/depthwise/required_space_to_batch_paddings/strided_slice_2", "op": "Const", "input": ["^Func/StatefulPartitionedCall/matting_network_wrapper/StatefulPartitionedCall/input_control_node/_326"], "attr": {"value": {"tensor": {"dtype": "DT_INT32", "tensorShape": {}}}, "dtype": {"type": "DT_INT32"}}}, {"name": "StatefulPartitionedCall/matting_network_wrapper/StatefulPartitionedCall/mobile_net_v3_encoder/inverted_residual_13/sequential_13/conv_bn_activation_40/depthwise_conv2d_13/depthwise/required_space_to_batch_paddings/strided_slice_3/stack", "op": "Const", "input": ["^Func/StatefulPartitionedCall/matting_network_wrapper/StatefulPartitionedCall/input_control_node/_326"], "attr": {"value": {"tensor": {"dtype": "DT_INT32", "tensorShape": {"dim": [{"size": "1"}]}}}, "dtype": {"type": "DT_INT32"}}}, {"name": "StatefulPartitionedCall/matting_network_wrapper/StatefulPartitionedCall/mobile_net_v3_encoder/inverted_residual_13/sequential_13/conv_bn_activation_40/depthwise_conv2d_13/depthwise/required_space_to_batch_paddings/strided_slice_3/stack_1", "op": "Const", "input": ["^Func/StatefulPartitionedCall/matting_network_wrapper/StatefulPartitionedCall/input_control_node/_326"], "attr": {"value": {"tensor": {"dtype": "DT_INT32", "tensorShape": {"dim": [{"size": "1"}]}}}, "dtype": {"type": "DT_INT32"}}}, {"name": "StatefulPartitionedCall/matting_network_wrapper/StatefulPartitionedCall/mobile_net_v3_encoder/inverted_residual_13/sequential_13/conv_bn_activation_40/depthwise_conv2d_13/depthwise/required_space_to_batch_paddings/strided_slice_3/stack_2", "op": "Const", "input": ["^Func/StatefulPartitionedCall/matting_network_wrapper/StatefulPartitionedCall/input_control_node/_326"], "attr": {"dtype": {"type": "DT_INT32"}, "value": {"tensor": {"dtype": "DT_INT32", "tensorShape": {"dim": [{"size": "1"}]}}}}}, {"name": "StatefulPartitionedCall/matting_network_wrapper/StatefulPartitionedCall/mobile_net_v3_encoder/inverted_residual_13/sequential_13/conv_bn_activation_40/depthwise_conv2d_13/depthwise/required_space_to_batch_paddings/strided_slice_4", "op": "Const", "input": ["^Func/StatefulPartitionedCall/matting_network_wrapper/StatefulPartitionedCall/input_control_node/_326"], "attr": {"dtype": {"type": "DT_INT32"}, "value": {"tensor": {"dtype": "DT_INT32", "tensorShape": {}}}}}, {"name": "StatefulPartitionedCall/matting_network_wrapper/StatefulPartitionedCall/mobile_net_v3_encoder/inverted_residual_13/sequential_13/conv_bn_activation_40/depthwise_conv2d_13/depthwise/required_space_to_batch_paddings/strided_slice_5/stack", "op": "Const", "input": ["^Func/StatefulPartitionedCall/matting_network_wrapper/StatefulPartitionedCall/input_control_node/_326"], "attr": {"value": {"tensor": {"dtype": "DT_INT32", "tensorShape": {"dim": [{"size": "1"}]}}}, "dtype": {"type": "DT_INT32"}}}, {"name": "StatefulPartitionedCall/matting_network_wrapper/StatefulPartitionedCall/mobile_net_v3_encoder/inverted_residual_13/sequential_13/conv_bn_activation_40/depthwise_conv2d_13/depthwise/required_space_to_batch_paddings/strided_slice_5/stack_1", "op": "Const", "input": ["^Func/StatefulPartitionedCall/matting_network_wrapper/StatefulPartitionedCall/input_control_node/_326"], "attr": {"value": {"tensor": {"dtype": "DT_INT32", "tensorShape": {"dim": [{"size": "1"}]}}}, "dtype": {"type": "DT_INT32"}}}, {"name": "StatefulPartitionedCall/matting_network_wrapper/StatefulPartitionedCall/mobile_net_v3_encoder/inverted_residual_13/sequential_13/conv_bn_activation_40/depthwise_conv2d_13/depthwise/required_space_to_batch_paddings/strided_slice_5/stack_2", "op": "Const", "input": ["^Func/StatefulPartitionedCall/matting_network_wrapper/StatefulPartitionedCall/input_control_node/_326"], "attr": {"value": {"tensor": {"dtype": "DT_INT32", "tensorShape": {"dim": [{"size": "1"}]}}}, "dtype": {"type": "DT_INT32"}}}, {"name": "StatefulPartitionedCall/matting_network_wrapper/StatefulPartitionedCall/mobile_net_v3_encoder/inverted_residual_13/sequential_13/conv_bn_activation_40/depthwise_conv2d_13/depthwise/ReadVariableOp", "op": "Const", "input": ["^Func/StatefulPartitionedCall/matting_network_wrapper/StatefulPartitionedCall/input_control_node/_326"], "attr": {"value": {"tensor": {"dtype": "DT_FLOAT", "tensorShape": {"dim": [{"size": "5"}, {"size": "5"}, {"size": "960"}, {"size": "1"}]}}}, "dtype": {"type": "DT_FLOAT"}}}, {"name": "StatefulPartitionedCall/matting_network_wrapper/StatefulPartitionedCall/mobile_net_v3_encoder/inverted_residual_13/sequential_13/conv_bn_activation_40/depthwise_conv2d_13/depthwise/BatchToSpaceND/block_shape", "op": "Const", "input": ["^Func/StatefulPartitionedCall/matting_network_wrapper/StatefulPartitionedCall/input_control_node/_326"], "attr": {"dtype": {"type": "DT_INT32"}, "value": {"tensor": {"dtype": "DT_INT32", "tensorShape": {"dim": [{"size": "2"}]}}}}}, {"name": "StatefulPartitionedCall/matting_network_wrapper/StatefulPartitionedCall/mobile_net_v3_encoder/inverted_residual_13/sequential_13/conv_bn_activation_40/depthwise_conv2d_13/depthwise/required_space_to_batch_paddings/crops/0/0", "op": "Const", "input": ["^Func/StatefulPartitionedCall/matting_network_wrapper/StatefulPartitionedCall/input_control_node/_326"], "attr": {"dtype": {"type": "DT_INT32"}, "value": {"tensor": {"dtype": "DT_INT32", "tensorShape": {}}}}}, {"name": "StatefulPartitionedCall/matting_network_wrapper/StatefulPartitionedCall/mobile_net_v3_encoder/inverted_residual_13/sequential_13/conv_bn_activation_40/depthwise_conv2d_13/depthwise/required_space_to_batch_paddings/strided_slice_6/stack", "op": "Const", "input": ["^Func/StatefulPartitionedCall/matting_network_wrapper/StatefulPartitionedCall/input_control_node/_326"], "attr": {"value": {"tensor": {"dtype": "DT_INT32", "tensorShape": {"dim": [{"size": "1"}]}}}, "dtype": {"type": "DT_INT32"}}}, {"name": "StatefulPartitionedCall/matting_network_wrapper/StatefulPartitionedCall/mobile_net_v3_encoder/inverted_residual_13/sequential_13/conv_bn_activation_40/depthwise_conv2d_13/depthwise/required_space_to_batch_paddings/strided_slice_6/stack_1", "op": "Const", "input": ["^Func/StatefulPartitionedCall/matting_network_wrapper/StatefulPartitionedCall/input_control_node/_326"], "attr": {"dtype": {"type": "DT_INT32"}, "value": {"tensor": {"dtype": "DT_INT32", "tensorShape": {"dim": [{"size": "1"}]}}}}}, {"name": "StatefulPartitionedCall/matting_network_wrapper/StatefulPartitionedCall/mobile_net_v3_encoder/inverted_residual_13/sequential_13/conv_bn_activation_40/depthwise_conv2d_13/depthwise/required_space_to_batch_paddings/strided_slice_6/stack_2", "op": "Const", "input": ["^Func/StatefulPartitionedCall/matting_network_wrapper/StatefulPartitionedCall/input_control_node/_326"], "attr": {"value": {"tensor": {"dtype": "DT_INT32", "tensorShape": {"dim": [{"size": "1"}]}}}, "dtype": {"type": "DT_INT32"}}}, {"name": "StatefulPartitionedCall/matting_network_wrapper/StatefulPartitionedCall/mobile_net_v3_encoder/inverted_residual_13/sequential_13/conv_bn_activation_40/depthwise_conv2d_13/depthwise/required_space_to_batch_paddings/crops/1/0", "op": "Const", "input": ["^Func/StatefulPartitionedCall/matting_network_wrapper/StatefulPartitionedCall/input_control_node/_326"], "attr": {"dtype": {"type": "DT_INT32"}, "value": {"tensor": {"dtype": "DT_INT32", "tensorShape": {}}}}}, {"name": "StatefulPartitionedCall/matting_network_wrapper/StatefulPartitionedCall/mobile_net_v3_encoder/inverted_residual_13/sequential_13/conv_bn_activation_40/depthwise_conv2d_13/depthwise/strided_slice/stack", "op": "Const", "input": ["^Func/StatefulPartitionedCall/matting_network_wrapper/StatefulPartitionedCall/input_control_node/_326"], "attr": {"value": {"tensor": {"dtype": "DT_INT32", "tensorShape": {"dim": [{"size": "1"}]}}}, "dtype": {"type": "DT_INT32"}}}, {"name": "StatefulPartitionedCall/matting_network_wrapper/StatefulPartitionedCall/mobile_net_v3_encoder/inverted_residual_13/sequential_13/conv_bn_activation_40/depthwise_conv2d_13/depthwise/strided_slice/stack_1", "op": "Const", "input": ["^Func/StatefulPartitionedCall/matting_network_wrapper/StatefulPartitionedCall/input_control_node/_326"], "attr": {"value": {"tensor": {"dtype": "DT_INT32", "tensorShape": {"dim": [{"size": "1"}]}}}, "dtype": {"type": "DT_INT32"}}}, {"name": "StatefulPartitionedCall/matting_network_wrapper/StatefulPartitionedCall/mobile_net_v3_encoder/inverted_residual_13/sequential_13/conv_bn_activation_40/depthwise_conv2d_13/depthwise/strided_slice/stack_2", "op": "Const", "input": ["^Func/StatefulPartitionedCall/matting_network_wrapper/StatefulPartitionedCall/input_control_node/_326"], "attr": {"value": {"tensor": {"dtype": "DT_INT32", "tensorShape": {"dim": [{"size": "1"}]}}}, "dtype": {"type": "DT_INT32"}}}, {"name": "ConstantFolding/StatefulPartitionedCall/matting_network_wrapper/StatefulPartitionedCall/mobile_net_v3_encoder/inverted_residual_13/sequential_13/conv_bn_activation_39/hardswish_15/truediv_recip", "op": "Const", "input": ["^Func/StatefulPartitionedCall/matting_network_wrapper/StatefulPartitionedCall/input_control_node/_326"], "attr": {"dtype": {"type": "DT_FLOAT"}, "value": {"tensor": {"dtype": "DT_FLOAT", "tensorShape": {}}}}}, {"name": "StatefulPartitionedCall/matting_network_wrapper/StatefulPartitionedCall/mobile_net_v3_encoder/inverted_residual_13/sequential_13/conv_bn_activation_39/hardswish_15/add/y", "op": "Const", "input": ["^Func/StatefulPartitionedCall/matting_network_wrapper/StatefulPartitionedCall/input_control_node/_326"], "attr": {"value": {"tensor": {"dtype": "DT_FLOAT", "tensorShape": {}}}, "dtype": {"type": "DT_FLOAT"}}}, {"name": "StatefulPartitionedCall/matting_network_wrapper/StatefulPartitionedCall/mobile_net_v3_encoder/inverted_residual_13/sequential_13/conv_bn_activation_40/zero_padding2d_14/Pad/paddings", "op": "Const", "input": ["^Func/StatefulPartitionedCall/matting_network_wrapper/StatefulPartitionedCall/input_control_node/_326"], "attr": {"dtype": {"type": "DT_INT32"}, "value": {"tensor": {"dtype": "DT_INT32", "tensorShape": {"dim": [{"size": "4"}, {"size": "2"}]}}}}}, {"name": "StatefulPartitionedCall/matting_network_wrapper/StatefulPartitionedCall/mobile_net_v3_encoder/inverted_residual_13/sequential_13/conv_bn_activation_40/depthwise_conv2d_13/depthwise/strided_slice_1/stack", "op": "Const", "input": ["^Func/StatefulPartitionedCall/matting_network_wrapper/StatefulPartitionedCall/input_control_node/_326"], "attr": {"value": {"tensor": {"dtype": "DT_INT32", "tensorShape": {"dim": [{"size": "1"}]}}}, "dtype": {"type": "DT_INT32"}}}, {"name": "StatefulPartitionedCall/matting_network_wrapper/StatefulPartitionedCall/mobile_net_v3_encoder/inverted_residual_13/sequential_13/conv_bn_activation_40/depthwise_conv2d_13/depthwise/strided_slice_1/stack_1", "op": "Const", "input": ["^Func/StatefulPartitionedCall/matting_network_wrapper/StatefulPartitionedCall/input_control_node/_326"], "attr": {"dtype": {"type": "DT_INT32"}, "value": {"tensor": {"dtype": "DT_INT32", "tensorShape": {"dim": [{"size": "1"}]}}}}}, {"name": "StatefulPartitionedCall/matting_network_wrapper/StatefulPartitionedCall/mobile_net_v3_encoder/inverted_residual_13/sequential_13/conv_bn_activation_40/depthwise_conv2d_13/depthwise/strided_slice_1/stack_2", "op": "Const", "input": ["^Func/StatefulPartitionedCall/matting_network_wrapper/StatefulPartitionedCall/input_control_node/_326"], "attr": {"dtype": {"type": "DT_INT32"}, "value": {"tensor": {"dtype": "DT_INT32", "tensorShape": {"dim": [{"size": "1"}]}}}}}, {"name": "StatefulPartitionedCall/matting_network_wrapper/StatefulPartitionedCall/mobile_net_v3_encoder/inverted_residual_13/sequential_13/conv_bn_activation_40/depthwise_conv2d_13/depthwise/dilation_rate", "op": "Const", "input": ["^Func/StatefulPartitionedCall/matting_network_wrapper/StatefulPartitionedCall/input_control_node/_326"], "attr": {"dtype": {"type": "DT_INT32"}, "value": {"tensor": {"dtype": "DT_INT32", "tensorShape": {"dim": [{"size": "2"}]}}}}}, {"name": "StatefulPartitionedCall/matting_network_wrapper/StatefulPartitionedCall/mobile_net_v3_encoder/inverted_residual_13/sequential_13/conv_bn_activation_40/depthwise_conv2d_13/depthwise/required_space_to_batch_paddings/strided_slice_7/stack", "op": "Const", "input": ["^Func/StatefulPartitionedCall/matting_network_wrapper/StatefulPartitionedCall/input_control_node/_326"], "attr": {"value": {"tensor": {"dtype": "DT_INT32", "tensorShape": {"dim": [{"size": "1"}]}}}, "dtype": {"type": "DT_INT32"}}}, {"name": "StatefulPartitionedCall/matting_network_wrapper/StatefulPartitionedCall/mobile_net_v3_encoder/inverted_residual_13/sequential_13/conv_bn_activation_40/depthwise_conv2d_13/depthwise/required_space_to_batch_paddings/strided_slice_7/stack_1", "op": "Const", "input": ["^Func/StatefulPartitionedCall/matting_network_wrapper/StatefulPartitionedCall/input_control_node/_326"], "attr": {"dtype": {"type": "DT_INT32"}, "value": {"tensor": {"dtype": "DT_INT32", "tensorShape": {"dim": [{"size": "1"}]}}}}}, {"name": "StatefulPartitionedCall/matting_network_wrapper/StatefulPartitionedCall/mobile_net_v3_encoder/inverted_residual_13/sequential_13/conv_bn_activation_40/depthwise_conv2d_13/depthwise/required_space_to_batch_paddings/strided_slice_7/stack_2", "op": "Const", "input": ["^Func/StatefulPartitionedCall/matting_network_wrapper/StatefulPartitionedCall/input_control_node/_326"], "attr": {"dtype": {"type": "DT_INT32"}, "value": {"tensor": {"dtype": "DT_INT32", "tensorShape": {"dim": [{"size": "1"}]}}}}}, {"name": "StatefulPartitionedCall/matting_network_wrapper/StatefulPartitionedCall/mobile_net_v3_encoder/inverted_residual_13/sequential_13/conv_bn_activation_40/hardswish_16/add/y", "op": "Const", "input": ["^Func/StatefulPartitionedCall/matting_network_wrapper/StatefulPartitionedCall/input_control_node/_326"], "attr": {"value": {"tensor": {"dtype": "DT_FLOAT", "tensorShape": {}}}, "dtype": {"type": "DT_FLOAT"}}}, {"name": "ConstantFolding/StatefulPartitionedCall/matting_network_wrapper/StatefulPartitionedCall/mobile_net_v3_encoder/inverted_residual_12/sequential_12/squeeze_excitation_5/truediv_recip", "op": "Const", "input": ["^Func/StatefulPartitionedCall/matting_network_wrapper/StatefulPartitionedCall/input_control_node/_326"], "attr": {"value": {"tensor": {"dtype": "DT_FLOAT", "tensorShape": {}}}, "dtype": {"type": "DT_FLOAT"}}}, {"name": "StatefulPartitionedCall/matting_network_wrapper/StatefulPartitionedCall/mobile_net_v3_encoder/inverted_residual_12/sequential_12/squeeze_excitation_5/Mean/reduction_indices", "op": "Const", "input": ["^Func/StatefulPartitionedCall/matting_network_wrapper/StatefulPartitionedCall/input_control_node/_326"], "attr": {"dtype": {"type": "DT_INT32"}, "value": {"tensor": {"dtype": "DT_INT32", "tensorShape": {"dim": [{"size": "2"}]}}}}}, {"name": "StatefulPartitionedCall/matting_network_wrapper/StatefulPartitionedCall/mobile_net_v3_encoder/inverted_residual_12/sequential_12/squeeze_excitation_5/conv2d_35/Conv2D/ReadVariableOp", "op": "Const", "input": ["^Func/StatefulPartitionedCall/matting_network_wrapper/StatefulPartitionedCall/input_control_node/_326"], "attr": {"dtype": {"type": "DT_FLOAT"}, "value": {"tensor": {"dtype": "DT_FLOAT", "tensorShape": {"dim": [{"size": "1"}, {"size": "1"}, {"size": "672"}, {"size": "168"}]}}}}}, {"name": "StatefulPartitionedCall/matting_network_wrapper/StatefulPartitionedCall/mobile_net_v3_encoder/inverted_residual_12/sequential_12/squeeze_excitation_5/conv2d_35/BiasAdd/ReadVariableOp", "op": "Const", "input": ["^Func/StatefulPartitionedCall/matting_network_wrapper/StatefulPartitionedCall/input_control_node/_326"], "attr": {"value": {"tensor": {"dtype": "DT_FLOAT", "tensorShape": {"dim": [{"size": "168"}]}}}, "dtype": {"type": "DT_FLOAT"}}}, {"name": "StatefulPartitionedCall/matting_network_wrapper/StatefulPartitionedCall/mobile_net_v3_encoder/inverted_residual_12/sequential_12/squeeze_excitation_5/conv2d_36/Conv2D/ReadVariableOp", "op": "Const", "input": ["^Func/StatefulPartitionedCall/matting_network_wrapper/StatefulPartitionedCall/input_control_node/_326"], "attr": {"value": {"tensor": {"dtype": "DT_FLOAT", "tensorShape": {"dim": [{"size": "1"}, {"size": "1"}, {"size": "168"}, {"size": "672"}]}}}, "dtype": {"type": "DT_FLOAT"}}}, {"name": "StatefulPartitionedCall/matting_network_wrapper/StatefulPartitionedCall/mobile_net_v3_encoder/inverted_residual_12/sequential_12/squeeze_excitation_5/conv2d_36/BiasAdd/ReadVariableOp", "op": "Const", "input": ["^Func/StatefulPartitionedCall/matting_network_wrapper/StatefulPartitionedCall/input_control_node/_326"], "attr": {"value": {"tensor": {"dtype": "DT_FLOAT", "tensorShape": {"dim": [{"size": "672"}]}}}, "dtype": {"type": "DT_FLOAT"}}}, {"name": "StatefulPartitionedCall/matting_network_wrapper/StatefulPartitionedCall/mobile_net_v3_encoder/inverted_residual_12/sequential_12/squeeze_excitation_5/add/y", "op": "Const", "input": ["^Func/StatefulPartitionedCall/matting_network_wrapper/StatefulPartitionedCall/input_control_node/_326"], "attr": {"dtype": {"type": "DT_FLOAT"}, "value": {"tensor": {"dtype": "DT_FLOAT", "tensorShape": {}}}}}, {"name": "ConstantFolding/StatefulPartitionedCall/matting_network_wrapper/StatefulPartitionedCall/mobile_net_v3_encoder/inverted_residual_12/sequential_12/conv_bn_activation_37/hardswish_14/truediv_recip", "op": "Const", "input": ["^Func/StatefulPartitionedCall/matting_network_wrapper/StatefulPartitionedCall/input_control_node/_326"], "attr": {"value": {"tensor": {"dtype": "DT_FLOAT", "tensorShape": {}}}, "dtype": {"type": "DT_FLOAT"}}}, {"name": "StatefulPartitionedCall/matting_network_wrapper/StatefulPartitionedCall/mobile_net_v3_encoder/inverted_residual_12/sequential_12/conv_bn_activation_37/depthwise_conv2d_12/depthwise/SpaceToBatchND/block_shape", "op": "Const", "input": ["^Func/StatefulPartitionedCall/matting_network_wrapper/StatefulPartitionedCall/input_control_node/_326"], "attr": {"dtype": {"type": "DT_INT32"}, "value": {"tensor": {"dtype": "DT_INT32", "tensorShape": {"dim": [{"size": "2"}]}}}}}, {"name": "StatefulPartitionedCall/matting_network_wrapper/StatefulPartitionedCall/mobile_net_v3_encoder/inverted_residual_12/sequential_12/conv_bn_activation_37/depthwise_conv2d_12/depthwise/required_space_to_batch_paddings/strided_slice_2", "op": "Const", "input": ["^Func/StatefulPartitionedCall/matting_network_wrapper/StatefulPartitionedCall/input_control_node/_326"], "attr": {"dtype": {"type": "DT_INT32"}, "value": {"tensor": {"dtype": "DT_INT32", "tensorShape": {}}}}}, {"name": "StatefulPartitionedCall/matting_network_wrapper/StatefulPartitionedCall/mobile_net_v3_encoder/inverted_residual_12/sequential_12/conv_bn_activation_37/depthwise_conv2d_12/depthwise/required_space_to_batch_paddings/strided_slice_3/stack", "op": "Const", "input": ["^Func/StatefulPartitionedCall/matting_network_wrapper/StatefulPartitionedCall/input_control_node/_326"], "attr": {"dtype": {"type": "DT_INT32"}, "value": {"tensor": {"dtype": "DT_INT32", "tensorShape": {"dim": [{"size": "1"}]}}}}}, {"name": "StatefulPartitionedCall/matting_network_wrapper/StatefulPartitionedCall/mobile_net_v3_encoder/inverted_residual_12/sequential_12/conv_bn_activation_37/depthwise_conv2d_12/depthwise/required_space_to_batch_paddings/strided_slice_3/stack_1", "op": "Const", "input": ["^Func/StatefulPartitionedCall/matting_network_wrapper/StatefulPartitionedCall/input_control_node/_326"], "attr": {"dtype": {"type": "DT_INT32"}, "value": {"tensor": {"dtype": "DT_INT32", "tensorShape": {"dim": [{"size": "1"}]}}}}}, {"name": "StatefulPartitionedCall/matting_network_wrapper/StatefulPartitionedCall/mobile_net_v3_encoder/inverted_residual_12/sequential_12/conv_bn_activation_37/depthwise_conv2d_12/depthwise/required_space_to_batch_paddings/strided_slice_3/stack_2", "op": "Const", "input": ["^Func/StatefulPartitionedCall/matting_network_wrapper/StatefulPartitionedCall/input_control_node/_326"], "attr": {"dtype": {"type": "DT_INT32"}, "value": {"tensor": {"dtype": "DT_INT32", "tensorShape": {"dim": [{"size": "1"}]}}}}}, {"name": "StatefulPartitionedCall/matting_network_wrapper/StatefulPartitionedCall/mobile_net_v3_encoder/inverted_residual_12/sequential_12/conv_bn_activation_37/depthwise_conv2d_12/depthwise/required_space_to_batch_paddings/strided_slice_4", "op": "Const", "input": ["^Func/StatefulPartitionedCall/matting_network_wrapper/StatefulPartitionedCall/input_control_node/_326"], "attr": {"value": {"tensor": {"dtype": "DT_INT32", "tensorShape": {}}}, "dtype": {"type": "DT_INT32"}}}, {"name": "StatefulPartitionedCall/matting_network_wrapper/StatefulPartitionedCall/mobile_net_v3_encoder/inverted_residual_12/sequential_12/conv_bn_activation_37/depthwise_conv2d_12/depthwise/required_space_to_batch_paddings/strided_slice_5/stack", "op": "Const", "input": ["^Func/StatefulPartitionedCall/matting_network_wrapper/StatefulPartitionedCall/input_control_node/_326"], "attr": {"dtype": {"type": "DT_INT32"}, "value": {"tensor": {"dtype": "DT_INT32", "tensorShape": {"dim": [{"size": "1"}]}}}}}, {"name": "StatefulPartitionedCall/matting_network_wrapper/StatefulPartitionedCall/mobile_net_v3_encoder/inverted_residual_12/sequential_12/conv_bn_activation_37/depthwise_conv2d_12/depthwise/required_space_to_batch_paddings/strided_slice_5/stack_1", "op": "Const", "input": ["^Func/StatefulPartitionedCall/matting_network_wrapper/StatefulPartitionedCall/input_control_node/_326"], "attr": {"dtype": {"type": "DT_INT32"}, "value": {"tensor": {"dtype": "DT_INT32", "tensorShape": {"dim": [{"size": "1"}]}}}}}, {"name": "StatefulPartitionedCall/matting_network_wrapper/StatefulPartitionedCall/mobile_net_v3_encoder/inverted_residual_12/sequential_12/conv_bn_activation_37/depthwise_conv2d_12/depthwise/required_space_to_batch_paddings/strided_slice_5/stack_2", "op": "Const", "input": ["^Func/StatefulPartitionedCall/matting_network_wrapper/StatefulPartitionedCall/input_control_node/_326"], "attr": {"value": {"tensor": {"dtype": "DT_INT32", "tensorShape": {"dim": [{"size": "1"}]}}}, "dtype": {"type": "DT_INT32"}}}, {"name": "StatefulPartitionedCall/matting_network_wrapper/StatefulPartitionedCall/mobile_net_v3_encoder/inverted_residual_12/sequential_12/conv_bn_activation_37/depthwise_conv2d_12/depthwise/ReadVariableOp", "op": "Const", "input": ["^Func/StatefulPartitionedCall/matting_network_wrapper/StatefulPartitionedCall/input_control_node/_326"], "attr": {"dtype": {"type": "DT_FLOAT"}, "value": {"tensor": {"dtype": "DT_FLOAT", "tensorShape": {"dim": [{"size": "5"}, {"size": "5"}, {"size": "672"}, {"size": "1"}]}}}}}, {"name": "StatefulPartitionedCall/matting_network_wrapper/StatefulPartitionedCall/mobile_net_v3_encoder/inverted_residual_12/sequential_12/conv_bn_activation_37/depthwise_conv2d_12/depthwise/BatchToSpaceND/block_shape", "op": "Const", "input": ["^Func/StatefulPartitionedCall/matting_network_wrapper/StatefulPartitionedCall/input_control_node/_326"], "attr": {"dtype": {"type": "DT_INT32"}, "value": {"tensor": {"dtype": "DT_INT32", "tensorShape": {"dim": [{"size": "2"}]}}}}}, {"name": "StatefulPartitionedCall/matting_network_wrapper/StatefulPartitionedCall/mobile_net_v3_encoder/inverted_residual_12/sequential_12/conv_bn_activation_37/depthwise_conv2d_12/depthwise/required_space_to_batch_paddings/crops/0/0", "op": "Const", "input": ["^Func/StatefulPartitionedCall/matting_network_wrapper/StatefulPartitionedCall/input_control_node/_326"], "attr": {"dtype": {"type": "DT_INT32"}, "value": {"tensor": {"dtype": "DT_INT32", "tensorShape": {}}}}}, {"name": "StatefulPartitionedCall/matting_network_wrapper/StatefulPartitionedCall/mobile_net_v3_encoder/inverted_residual_12/sequential_12/conv_bn_activation_37/depthwise_conv2d_12/depthwise/required_space_to_batch_paddings/strided_slice_6/stack", "op": "Const", "input": ["^Func/StatefulPartitionedCall/matting_network_wrapper/StatefulPartitionedCall/input_control_node/_326"], "attr": {"value": {"tensor": {"dtype": "DT_INT32", "tensorShape": {"dim": [{"size": "1"}]}}}, "dtype": {"type": "DT_INT32"}}}, {"name": "StatefulPartitionedCall/matting_network_wrapper/StatefulPartitionedCall/mobile_net_v3_encoder/inverted_residual_12/sequential_12/conv_bn_activation_37/depthwise_conv2d_12/depthwise/required_space_to_batch_paddings/strided_slice_6/stack_1", "op": "Const", "input": ["^Func/StatefulPartitionedCall/matting_network_wrapper/StatefulPartitionedCall/input_control_node/_326"], "attr": {"dtype": {"type": "DT_INT32"}, "value": {"tensor": {"dtype": "DT_INT32", "tensorShape": {"dim": [{"size": "1"}]}}}}}, {"name": "StatefulPartitionedCall/matting_network_wrapper/StatefulPartitionedCall/mobile_net_v3_encoder/inverted_residual_12/sequential_12/conv_bn_activation_37/depthwise_conv2d_12/depthwise/required_space_to_batch_paddings/strided_slice_6/stack_2", "op": "Const", "input": ["^Func/StatefulPartitionedCall/matting_network_wrapper/StatefulPartitionedCall/input_control_node/_326"], "attr": {"dtype": {"type": "DT_INT32"}, "value": {"tensor": {"dtype": "DT_INT32", "tensorShape": {"dim": [{"size": "1"}]}}}}}, {"name": "StatefulPartitionedCall/matting_network_wrapper/StatefulPartitionedCall/mobile_net_v3_encoder/inverted_residual_12/sequential_12/conv_bn_activation_37/depthwise_conv2d_12/depthwise/required_space_to_batch_paddings/crops/1/0", "op": "Const", "input": ["^Func/StatefulPartitionedCall/matting_network_wrapper/StatefulPartitionedCall/input_control_node/_326"], "attr": {"value": {"tensor": {"dtype": "DT_INT32", "tensorShape": {}}}, "dtype": {"type": "DT_INT32"}}}, {"name": "StatefulPartitionedCall/matting_network_wrapper/StatefulPartitionedCall/mobile_net_v3_encoder/inverted_residual_12/sequential_12/conv_bn_activation_37/depthwise_conv2d_12/depthwise/strided_slice/stack", "op": "Const", "input": ["^Func/StatefulPartitionedCall/matting_network_wrapper/StatefulPartitionedCall/input_control_node/_326"], "attr": {"dtype": {"type": "DT_INT32"}, "value": {"tensor": {"dtype": "DT_INT32", "tensorShape": {"dim": [{"size": "1"}]}}}}}, {"name": "StatefulPartitionedCall/matting_network_wrapper/StatefulPartitionedCall/mobile_net_v3_encoder/inverted_residual_12/sequential_12/conv_bn_activation_37/depthwise_conv2d_12/depthwise/strided_slice/stack_1", "op": "Const", "input": ["^Func/StatefulPartitionedCall/matting_network_wrapper/StatefulPartitionedCall/input_control_node/_326"], "attr": {"value": {"tensor": {"dtype": "DT_INT32", "tensorShape": {"dim": [{"size": "1"}]}}}, "dtype": {"type": "DT_INT32"}}}, {"name": "StatefulPartitionedCall/matting_network_wrapper/StatefulPartitionedCall/mobile_net_v3_encoder/inverted_residual_12/sequential_12/conv_bn_activation_37/depthwise_conv2d_12/depthwise/strided_slice/stack_2", "op": "Const", "input": ["^Func/StatefulPartitionedCall/matting_network_wrapper/StatefulPartitionedCall/input_control_node/_326"], "attr": {"value": {"tensor": {"dtype": "DT_INT32", "tensorShape": {"dim": [{"size": "1"}]}}}, "dtype": {"type": "DT_INT32"}}}, {"name": "ConstantFolding/StatefulPartitionedCall/matting_network_wrapper/StatefulPartitionedCall/mobile_net_v3_encoder/inverted_residual_12/sequential_12/conv_bn_activation_36/hardswish_13/truediv_recip", "op": "Const", "input": ["^Func/StatefulPartitionedCall/matting_network_wrapper/StatefulPartitionedCall/input_control_node/_326"], "attr": {"dtype": {"type": "DT_FLOAT"}, "value": {"tensor": {"dtype": "DT_FLOAT", "tensorShape": {}}}}}, {"name": "ConstantFolding/StatefulPartitionedCall/matting_network_wrapper/StatefulPartitionedCall/mobile_net_v3_encoder/inverted_residual_11/sequential_11/squeeze_excitation_4/truediv_recip", "op": "Const", "input": ["^Func/StatefulPartitionedCall/matting_network_wrapper/StatefulPartitionedCall/input_control_node/_326"], "attr": {"value": {"tensor": {"dtype": "DT_FLOAT", "tensorShape": {}}}, "dtype": {"type": "DT_FLOAT"}}}, {"name": "StatefulPartitionedCall/matting_network_wrapper/StatefulPartitionedCall/mobile_net_v3_encoder/inverted_residual_11/sequential_11/squeeze_excitation_4/Mean/reduction_indices", "op": "Const", "input": ["^Func/StatefulPartitionedCall/matting_network_wrapper/StatefulPartitionedCall/input_control_node/_326"], "attr": {"value": {"tensor": {"dtype": "DT_INT32", "tensorShape": {"dim": [{"size": "2"}]}}}, "dtype": {"type": "DT_INT32"}}}, {"name": "StatefulPartitionedCall/matting_network_wrapper/StatefulPartitionedCall/mobile_net_v3_encoder/inverted_residual_11/sequential_11/squeeze_excitation_4/conv2d_31/Conv2D/ReadVariableOp", "op": "Const", "input": ["^Func/StatefulPartitionedCall/matting_network_wrapper/StatefulPartitionedCall/input_control_node/_326"], "attr": {"dtype": {"type": "DT_FLOAT"}, "value": {"tensor": {"dtype": "DT_FLOAT", "tensorShape": {"dim": [{"size": "1"}, {"size": "1"}, {"size": "672"}, {"size": "168"}]}}}}}, {"name": "StatefulPartitionedCall/matting_network_wrapper/StatefulPartitionedCall/mobile_net_v3_encoder/inverted_residual_11/sequential_11/squeeze_excitation_4/conv2d_31/BiasAdd/ReadVariableOp", "op": "Const", "input": ["^Func/StatefulPartitionedCall/matting_network_wrapper/StatefulPartitionedCall/input_control_node/_326"], "attr": {"value": {"tensor": {"dtype": "DT_FLOAT", "tensorShape": {"dim": [{"size": "168"}]}}}, "dtype": {"type": "DT_FLOAT"}}}, {"name": "StatefulPartitionedCall/matting_network_wrapper/StatefulPartitionedCall/mobile_net_v3_encoder/inverted_residual_11/sequential_11/squeeze_excitation_4/conv2d_32/Conv2D/ReadVariableOp", "op": "Const", "input": ["^Func/StatefulPartitionedCall/matting_network_wrapper/StatefulPartitionedCall/input_control_node/_326"], "attr": {"value": {"tensor": {"dtype": "DT_FLOAT", "tensorShape": {"dim": [{"size": "1"}, {"size": "1"}, {"size": "168"}, {"size": "672"}]}}}, "dtype": {"type": "DT_FLOAT"}}}, {"name": "StatefulPartitionedCall/matting_network_wrapper/StatefulPartitionedCall/mobile_net_v3_encoder/inverted_residual_11/sequential_11/squeeze_excitation_4/conv2d_32/BiasAdd/ReadVariableOp", "op": "Const", "input": ["^Func/StatefulPartitionedCall/matting_network_wrapper/StatefulPartitionedCall/input_control_node/_326"], "attr": {"dtype": {"type": "DT_FLOAT"}, "value": {"tensor": {"dtype": "DT_FLOAT", "tensorShape": {"dim": [{"size": "672"}]}}}}}, {"name": "StatefulPartitionedCall/matting_network_wrapper/StatefulPartitionedCall/mobile_net_v3_encoder/inverted_residual_11/sequential_11/squeeze_excitation_4/add/y", "op": "Const", "input": ["^Func/StatefulPartitionedCall/matting_network_wrapper/StatefulPartitionedCall/input_control_node/_326"], "attr": {"dtype": {"type": "DT_FLOAT"}, "value": {"tensor": {"dtype": "DT_FLOAT", "tensorShape": {}}}}}, {"name": "ConstantFolding/StatefulPartitionedCall/matting_network_wrapper/StatefulPartitionedCall/mobile_net_v3_encoder/inverted_residual_11/sequential_11/conv_bn_activation_34/hardswish_12/truediv_recip", "op": "Const", "input": ["^Func/StatefulPartitionedCall/matting_network_wrapper/StatefulPartitionedCall/input_control_node/_326"], "attr": {"dtype": {"type": "DT_FLOAT"}, "value": {"tensor": {"dtype": "DT_FLOAT", "tensorShape": {}}}}}, {"name": "ConstantFolding/StatefulPartitionedCall/matting_network_wrapper/StatefulPartitionedCall/mobile_net_v3_encoder/inverted_residual_11/sequential_11/conv_bn_activation_33/hardswish_11/truediv_recip", "op": "Const", "input": ["^Func/StatefulPartitionedCall/matting_network_wrapper/StatefulPartitionedCall/input_control_node/_326"], "attr": {"dtype": {"type": "DT_FLOAT"}, "value": {"tensor": {"dtype": "DT_FLOAT", "tensorShape": {}}}}}, {"name": "StatefulPartitionedCall/matting_network_wrapper/StatefulPartitionedCall/mobile_net_v3_encoder/inverted_residual_11/sequential_11/conv_bn_activation_33/hardswish_11/add/y", "op": "Const", "input": ["^Func/StatefulPartitionedCall/matting_network_wrapper/StatefulPartitionedCall/input_control_node/_326"], "attr": {"dtype": {"type": "DT_FLOAT"}, "value": {"tensor": {"dtype": "DT_FLOAT", "tensorShape": {}}}}}, {"name": "StatefulPartitionedCall/matting_network_wrapper/StatefulPartitionedCall/mobile_net_v3_encoder/inverted_residual_11/sequential_11/conv_bn_activation_34/zero_padding2d_12/Pad/paddings", "op": "Const", "input": ["^Func/StatefulPartitionedCall/matting_network_wrapper/StatefulPartitionedCall/input_control_node/_326"], "attr": {"value": {"tensor": {"dtype": "DT_INT32", "tensorShape": {"dim": [{"size": "4"}, {"size": "2"}]}}}, "dtype": {"type": "DT_INT32"}}}, {"name": "StatefulPartitionedCall/matting_network_wrapper/StatefulPartitionedCall/mobile_net_v3_encoder/inverted_residual_11/sequential_11/conv_bn_activation_34/hardswish_12/add/y", "op": "Const", "input": ["^Func/StatefulPartitionedCall/matting_network_wrapper/StatefulPartitionedCall/input_control_node/_326"], "attr": {"dtype": {"type": "DT_FLOAT"}, "value": {"tensor": {"dtype": "DT_FLOAT", "tensorShape": {}}}}}, {"name": "ConstantFolding/StatefulPartitionedCall/matting_network_wrapper/StatefulPartitionedCall/mobile_net_v3_encoder/inverted_residual_10/sequential_10/squeeze_excitation_3/truediv_recip", "op": "Const", "input": ["^Func/StatefulPartitionedCall/matting_network_wrapper/StatefulPartitionedCall/input_control_node/_326"], "attr": {"value": {"tensor": {"dtype": "DT_FLOAT", "tensorShape": {}}}, "dtype": {"type": "DT_FLOAT"}}}, {"name": "StatefulPartitionedCall/matting_network_wrapper/StatefulPartitionedCall/mobile_net_v3_encoder/inverted_residual_10/sequential_10/squeeze_excitation_3/Mean/reduction_indices", "op": "Const", "input": ["^Func/StatefulPartitionedCall/matting_network_wrapper/StatefulPartitionedCall/input_control_node/_326"], "attr": {"dtype": {"type": "DT_INT32"}, "value": {"tensor": {"dtype": "DT_INT32", "tensorShape": {"dim": [{"size": "2"}]}}}}}, {"name": "StatefulPartitionedCall/matting_network_wrapper/StatefulPartitionedCall/mobile_net_v3_encoder/inverted_residual_10/sequential_10/squeeze_excitation_3/conv2d_27/Conv2D/ReadVariableOp", "op": "Const", "input": ["^Func/StatefulPartitionedCall/matting_network_wrapper/StatefulPartitionedCall/input_control_node/_326"], "attr": {"value": {"tensor": {"dtype": "DT_FLOAT", "tensorShape": {"dim": [{"size": "1"}, {"size": "1"}, {"size": "480"}, {"size": "120"}]}}}, "dtype": {"type": "DT_FLOAT"}}}, {"name": "StatefulPartitionedCall/matting_network_wrapper/StatefulPartitionedCall/mobile_net_v3_encoder/inverted_residual_10/sequential_10/squeeze_excitation_3/conv2d_27/BiasAdd/ReadVariableOp", "op": "Const", "input": ["^Func/StatefulPartitionedCall/matting_network_wrapper/StatefulPartitionedCall/input_control_node/_326"], "attr": {"dtype": {"type": "DT_FLOAT"}, "value": {"tensor": {"dtype": "DT_FLOAT", "tensorShape": {"dim": [{"size": "120"}]}}}}}, {"name": "StatefulPartitionedCall/matting_network_wrapper/StatefulPartitionedCall/mobile_net_v3_encoder/inverted_residual_10/sequential_10/squeeze_excitation_3/conv2d_28/Conv2D/ReadVariableOp", "op": "Const", "input": ["^Func/StatefulPartitionedCall/matting_network_wrapper/StatefulPartitionedCall/input_control_node/_326"], "attr": {"dtype": {"type": "DT_FLOAT"}, "value": {"tensor": {"dtype": "DT_FLOAT", "tensorShape": {"dim": [{"size": "1"}, {"size": "1"}, {"size": "120"}, {"size": "480"}]}}}}}, {"name": "StatefulPartitionedCall/matting_network_wrapper/StatefulPartitionedCall/mobile_net_v3_encoder/inverted_residual_10/sequential_10/squeeze_excitation_3/conv2d_28/BiasAdd/ReadVariableOp", "op": "Const", "input": ["^Func/StatefulPartitionedCall/matting_network_wrapper/StatefulPartitionedCall/input_control_node/_326"], "attr": {"dtype": {"type": "DT_FLOAT"}, "value": {"tensor": {"dtype": "DT_FLOAT", "tensorShape": {"dim": [{"size": "480"}]}}}}}, {"name": "StatefulPartitionedCall/matting_network_wrapper/StatefulPartitionedCall/mobile_net_v3_encoder/inverted_residual_10/sequential_10/squeeze_excitation_3/add/y", "op": "Const", "input": ["^Func/StatefulPartitionedCall/matting_network_wrapper/StatefulPartitionedCall/input_control_node/_326"], "attr": {"value": {"tensor": {"dtype": "DT_FLOAT", "tensorShape": {}}}, "dtype": {"type": "DT_FLOAT"}}}, {"name": "ConstantFolding/StatefulPartitionedCall/matting_network_wrapper/StatefulPartitionedCall/mobile_net_v3_encoder/inverted_residual_10/sequential_10/conv_bn_activation_31/hardswish_10/truediv_recip", "op": "Const", "input": ["^Func/StatefulPartitionedCall/matting_network_wrapper/StatefulPartitionedCall/input_control_node/_326"], "attr": {"value": {"tensor": {"dtype": "DT_FLOAT", "tensorShape": {}}}, "dtype": {"type": "DT_FLOAT"}}}, {"name": "ConstantFolding/StatefulPartitionedCall/matting_network_wrapper/StatefulPartitionedCall/mobile_net_v3_encoder/inverted_residual_10/sequential_10/conv_bn_activation_30/hardswish_9/truediv_recip", "op": "Const", "input": ["^Func/StatefulPartitionedCall/matting_network_wrapper/StatefulPartitionedCall/input_control_node/_326"], "attr": {"value": {"tensor": {"dtype": "DT_FLOAT", "tensorShape": {}}}, "dtype": {"type": "DT_FLOAT"}}}, {"name": "ConstantFolding/StatefulPartitionedCall/matting_network_wrapper/StatefulPartitionedCall/mobile_net_v3_encoder/inverted_residual_9/sequential_9/conv_bn_activation_28/hardswish_8/truediv_recip", "op": "Const", "input": ["^Func/StatefulPartitionedCall/matting_network_wrapper/StatefulPartitionedCall/input_control_node/_326"], "attr": {"dtype": {"type": "DT_FLOAT"}, "value": {"tensor": {"dtype": "DT_FLOAT", "tensorShape": {}}}}}, {"name": "ConstantFolding/StatefulPartitionedCall/matting_network_wrapper/StatefulPartitionedCall/mobile_net_v3_encoder/inverted_residual_9/sequential_9/conv_bn_activation_27/hardswish_7/truediv_recip", "op": "Const", "input": ["^Func/StatefulPartitionedCall/matting_network_wrapper/StatefulPartitionedCall/input_control_node/_326"], "attr": {"dtype": {"type": "DT_FLOAT"}, "value": {"tensor": {"dtype": "DT_FLOAT", "tensorShape": {}}}}}, {"name": "StatefulPartitionedCall/matting_network_wrapper/StatefulPartitionedCall/mobile_net_v3_encoder/inverted_residual_9/sequential_9/conv_bn_activation_27/hardswish_7/add/y", "op": "Const", "input": ["^Func/StatefulPartitionedCall/matting_network_wrapper/StatefulPartitionedCall/input_control_node/_326"], "attr": {"value": {"tensor": {"dtype": "DT_FLOAT", "tensorShape": {}}}, "dtype": {"type": "DT_FLOAT"}}}, {"name": "StatefulPartitionedCall/matting_network_wrapper/StatefulPartitionedCall/mobile_net_v3_encoder/inverted_residual_9/sequential_9/conv_bn_activation_28/zero_padding2d_10/Pad/paddings", "op": "Const", "input": ["^Func/StatefulPartitionedCall/matting_network_wrapper/StatefulPartitionedCall/input_control_node/_326"], "attr": {"value": {"tensor": {"dtype": "DT_INT32", "tensorShape": {"dim": [{"size": "4"}, {"size": "2"}]}}}, "dtype": {"type": "DT_INT32"}}}, {"name": "StatefulPartitionedCall/matting_network_wrapper/StatefulPartitionedCall/mobile_net_v3_encoder/inverted_residual_9/sequential_9/conv_bn_activation_28/hardswish_8/add/y", "op": "Const", "input": ["^Func/StatefulPartitionedCall/matting_network_wrapper/StatefulPartitionedCall/input_control_node/_326"], "attr": {"value": {"tensor": {"dtype": "DT_FLOAT", "tensorShape": {}}}, "dtype": {"type": "DT_FLOAT"}}}, {"name": "ConstantFolding/StatefulPartitionedCall/matting_network_wrapper/StatefulPartitionedCall/mobile_net_v3_encoder/inverted_residual_8/sequential_8/conv_bn_activation_25/hardswish_6/truediv_recip", "op": "Const", "input": ["^Func/StatefulPartitionedCall/matting_network_wrapper/StatefulPartitionedCall/input_control_node/_326"], "attr": {"value": {"tensor": {"dtype": "DT_FLOAT", "tensorShape": {}}}, "dtype": {"type": "DT_FLOAT"}}}, {"name": "ConstantFolding/StatefulPartitionedCall/matting_network_wrapper/StatefulPartitionedCall/mobile_net_v3_encoder/inverted_residual_8/sequential_8/conv_bn_activation_24/hardswish_5/truediv_recip", "op": "Const", "input": ["^Func/StatefulPartitionedCall/matting_network_wrapper/StatefulPartitionedCall/input_control_node/_326"], "attr": {"dtype": {"type": "DT_FLOAT"}, "value": {"tensor": {"dtype": "DT_FLOAT", "tensorShape": {}}}}}, {"name": "StatefulPartitionedCall/matting_network_wrapper/StatefulPartitionedCall/mobile_net_v3_encoder/inverted_residual_8/sequential_8/conv_bn_activation_24/hardswish_5/add/y", "op": "Const", "input": ["^Func/StatefulPartitionedCall/matting_network_wrapper/StatefulPartitionedCall/input_control_node/_326"], "attr": {"dtype": {"type": "DT_FLOAT"}, "value": {"tensor": {"dtype": "DT_FLOAT", "tensorShape": {}}}}}, {"name": "StatefulPartitionedCall/matting_network_wrapper/StatefulPartitionedCall/mobile_net_v3_encoder/inverted_residual_8/sequential_8/conv_bn_activation_25/zero_padding2d_9/Pad/paddings", "op": "Const", "input": ["^Func/StatefulPartitionedCall/matting_network_wrapper/StatefulPartitionedCall/input_control_node/_326"], "attr": {"value": {"tensor": {"dtype": "DT_INT32", "tensorShape": {"dim": [{"size": "4"}, {"size": "2"}]}}}, "dtype": {"type": "DT_INT32"}}}, {"name": "StatefulPartitionedCall/matting_network_wrapper/StatefulPartitionedCall/mobile_net_v3_encoder/inverted_residual_8/sequential_8/conv_bn_activation_25/hardswish_6/add/y", "op": "Const", "input": ["^Func/StatefulPartitionedCall/matting_network_wrapper/StatefulPartitionedCall/input_control_node/_326"], "attr": {"dtype": {"type": "DT_FLOAT"}, "value": {"tensor": {"dtype": "DT_FLOAT", "tensorShape": {}}}}}, {"name": "ConstantFolding/StatefulPartitionedCall/matting_network_wrapper/StatefulPartitionedCall/mobile_net_v3_encoder/inverted_residual_7/sequential_7/conv_bn_activation_22/hardswish_4/truediv_recip", "op": "Const", "input": ["^Func/StatefulPartitionedCall/matting_network_wrapper/StatefulPartitionedCall/input_control_node/_326"], "attr": {"value": {"tensor": {"dtype": "DT_FLOAT", "tensorShape": {}}}, "dtype": {"type": "DT_FLOAT"}}}, {"name": "ConstantFolding/StatefulPartitionedCall/matting_network_wrapper/StatefulPartitionedCall/mobile_net_v3_encoder/inverted_residual_7/sequential_7/conv_bn_activation_21/hardswish_3/truediv_recip", "op": "Const", "input": ["^Func/StatefulPartitionedCall/matting_network_wrapper/StatefulPartitionedCall/input_control_node/_326"], "attr": {"value": {"tensor": {"dtype": "DT_FLOAT", "tensorShape": {}}}, "dtype": {"type": "DT_FLOAT"}}}, {"name": "StatefulPartitionedCall/matting_network_wrapper/StatefulPartitionedCall/mobile_net_v3_encoder/inverted_residual_7/sequential_7/conv_bn_activation_21/hardswish_3/add/y", "op": "Const", "input": ["^Func/StatefulPartitionedCall/matting_network_wrapper/StatefulPartitionedCall/input_control_node/_326"], "attr": {"dtype": {"type": "DT_FLOAT"}, "value": {"tensor": {"dtype": "DT_FLOAT", "tensorShape": {}}}}}, {"name": "StatefulPartitionedCall/matting_network_wrapper/StatefulPartitionedCall/mobile_net_v3_encoder/inverted_residual_7/sequential_7/conv_bn_activation_22/zero_padding2d_8/Pad/paddings", "op": "Const", "input": ["^Func/StatefulPartitionedCall/matting_network_wrapper/StatefulPartitionedCall/input_control_node/_326"], "attr": {"dtype": {"type": "DT_INT32"}, "value": {"tensor": {"dtype": "DT_INT32", "tensorShape": {"dim": [{"size": "4"}, {"size": "2"}]}}}}}, {"name": "StatefulPartitionedCall/matting_network_wrapper/StatefulPartitionedCall/mobile_net_v3_encoder/inverted_residual_7/sequential_7/conv_bn_activation_22/hardswish_4/add/y", "op": "Const", "input": ["^Func/StatefulPartitionedCall/matting_network_wrapper/StatefulPartitionedCall/input_control_node/_326"], "attr": {"dtype": {"type": "DT_FLOAT"}, "value": {"tensor": {"dtype": "DT_FLOAT", "tensorShape": {}}}}}, {"name": "ConstantFolding/StatefulPartitionedCall/matting_network_wrapper/StatefulPartitionedCall/mobile_net_v3_encoder/inverted_residual_6/sequential_6/conv_bn_activation_19/hardswish_2/truediv_recip", "op": "Const", "input": ["^Func/StatefulPartitionedCall/matting_network_wrapper/StatefulPartitionedCall/input_control_node/_326"], "attr": {"value": {"tensor": {"dtype": "DT_FLOAT", "tensorShape": {}}}, "dtype": {"type": "DT_FLOAT"}}}, {"name": "ConstantFolding/StatefulPartitionedCall/matting_network_wrapper/StatefulPartitionedCall/mobile_net_v3_encoder/inverted_residual_6/sequential_6/conv_bn_activation_18/hardswish_1/truediv_recip", "op": "Const", "input": ["^Func/StatefulPartitionedCall/matting_network_wrapper/StatefulPartitionedCall/input_control_node/_326"], "attr": {"value": {"tensor": {"dtype": "DT_FLOAT", "tensorShape": {}}}, "dtype": {"type": "DT_FLOAT"}}}, {"name": "StatefulPartitionedCall/matting_network_wrapper/StatefulPartitionedCall/mobile_net_v3_encoder/inverted_residual_6/sequential_6/conv_bn_activation_18/hardswish_1/add/y", "op": "Const", "input": ["^Func/StatefulPartitionedCall/matting_network_wrapper/StatefulPartitionedCall/input_control_node/_326"], "attr": {"dtype": {"type": "DT_FLOAT"}, "value": {"tensor": {"dtype": "DT_FLOAT", "tensorShape": {}}}}}, {"name": "StatefulPartitionedCall/matting_network_wrapper/StatefulPartitionedCall/mobile_net_v3_encoder/inverted_residual_6/sequential_6/conv_bn_activation_19/zero_padding2d_7/Pad/paddings", "op": "Const", "input": ["^Func/StatefulPartitionedCall/matting_network_wrapper/StatefulPartitionedCall/input_control_node/_326"], "attr": {"dtype": {"type": "DT_INT32"}, "value": {"tensor": {"dtype": "DT_INT32", "tensorShape": {"dim": [{"size": "4"}, {"size": "2"}]}}}}}, {"name": "StatefulPartitionedCall/matting_network_wrapper/StatefulPartitionedCall/mobile_net_v3_encoder/inverted_residual_6/sequential_6/conv_bn_activation_19/hardswish_2/add/y", "op": "Const", "input": ["^Func/StatefulPartitionedCall/matting_network_wrapper/StatefulPartitionedCall/input_control_node/_326"], "attr": {"dtype": {"type": "DT_FLOAT"}, "value": {"tensor": {"dtype": "DT_FLOAT", "tensorShape": {}}}}}, {"name": "StatefulPartitionedCall/matting_network_wrapper/StatefulPartitionedCall/mobile_net_v3_encoder/inverted_residual_10/sequential_10/conv_bn_activation_30/hardswish_9/add/y", "op": "Const", "input": ["^Func/StatefulPartitionedCall/matting_network_wrapper/StatefulPartitionedCall/input_control_node/_326"], "attr": {"value": {"tensor": {"dtype": "DT_FLOAT", "tensorShape": {}}}, "dtype": {"type": "DT_FLOAT"}}}, {"name": "StatefulPartitionedCall/matting_network_wrapper/StatefulPartitionedCall/mobile_net_v3_encoder/inverted_residual_10/sequential_10/conv_bn_activation_31/zero_padding2d_11/Pad/paddings", "op": "Const", "input": ["^Func/StatefulPartitionedCall/matting_network_wrapper/StatefulPartitionedCall/input_control_node/_326"], "attr": {"value": {"tensor": {"dtype": "DT_INT32", "tensorShape": {"dim": [{"size": "4"}, {"size": "2"}]}}}, "dtype": {"type": "DT_INT32"}}}, {"name": "StatefulPartitionedCall/matting_network_wrapper/StatefulPartitionedCall/mobile_net_v3_encoder/inverted_residual_10/sequential_10/conv_bn_activation_31/hardswish_10/add/y", "op": "Const", "input": ["^Func/StatefulPartitionedCall/matting_network_wrapper/StatefulPartitionedCall/input_control_node/_326"], "attr": {"dtype": {"type": "DT_FLOAT"}, "value": {"tensor": {"dtype": "DT_FLOAT", "tensorShape": {}}}}}, {"name": "StatefulPartitionedCall/matting_network_wrapper/StatefulPartitionedCall/mobile_net_v3_encoder/inverted_residual_12/sequential_12/conv_bn_activation_36/hardswish_13/add/y", "op": "Const", "input": ["^Func/StatefulPartitionedCall/matting_network_wrapper/StatefulPartitionedCall/input_control_node/_326"], "attr": {"dtype": {"type": "DT_FLOAT"}, "value": {"tensor": {"dtype": "DT_FLOAT", "tensorShape": {}}}}}, {"name": "StatefulPartitionedCall/matting_network_wrapper/StatefulPartitionedCall/mobile_net_v3_encoder/inverted_residual_12/sequential_12/conv_bn_activation_37/zero_padding2d_13/Pad/paddings", "op": "Const", "input": ["^Func/StatefulPartitionedCall/matting_network_wrapper/StatefulPartitionedCall/input_control_node/_326"], "attr": {"dtype": {"type": "DT_INT32"}, "value": {"tensor": {"dtype": "DT_INT32", "tensorShape": {"dim": [{"size": "4"}, {"size": "2"}]}}}}}, {"name": "StatefulPartitionedCall/matting_network_wrapper/StatefulPartitionedCall/mobile_net_v3_encoder/inverted_residual_12/sequential_12/conv_bn_activation_37/depthwise_conv2d_12/depthwise/strided_slice_1/stack", "op": "Const", "input": ["^Func/StatefulPartitionedCall/matting_network_wrapper/StatefulPartitionedCall/input_control_node/_326"], "attr": {"dtype": {"type": "DT_INT32"}, "value": {"tensor": {"dtype": "DT_INT32", "tensorShape": {"dim": [{"size": "1"}]}}}}}, {"name": "StatefulPartitionedCall/matting_network_wrapper/StatefulPartitionedCall/mobile_net_v3_encoder/inverted_residual_12/sequential_12/conv_bn_activation_37/depthwise_conv2d_12/depthwise/strided_slice_1/stack_1", "op": "Const", "input": ["^Func/StatefulPartitionedCall/matting_network_wrapper/StatefulPartitionedCall/input_control_node/_326"], "attr": {"dtype": {"type": "DT_INT32"}, "value": {"tensor": {"dtype": "DT_INT32", "tensorShape": {"dim": [{"size": "1"}]}}}}}, {"name": "StatefulPartitionedCall/matting_network_wrapper/StatefulPartitionedCall/mobile_net_v3_encoder/inverted_residual_12/sequential_12/conv_bn_activation_37/depthwise_conv2d_12/depthwise/strided_slice_1/stack_2", "op": "Const", "input": ["^Func/StatefulPartitionedCall/matting_network_wrapper/StatefulPartitionedCall/input_control_node/_326"], "attr": {"dtype": {"type": "DT_INT32"}, "value": {"tensor": {"dtype": "DT_INT32", "tensorShape": {"dim": [{"size": "1"}]}}}}}, {"name": "StatefulPartitionedCall/matting_network_wrapper/StatefulPartitionedCall/mobile_net_v3_encoder/inverted_residual_12/sequential_12/conv_bn_activation_37/depthwise_conv2d_12/depthwise/dilation_rate", "op": "Const", "input": ["^Func/StatefulPartitionedCall/matting_network_wrapper/StatefulPartitionedCall/input_control_node/_326"], "attr": {"value": {"tensor": {"dtype": "DT_INT32", "tensorShape": {"dim": [{"size": "2"}]}}}, "dtype": {"type": "DT_INT32"}}}, {"name": "StatefulPartitionedCall/matting_network_wrapper/StatefulPartitionedCall/mobile_net_v3_encoder/inverted_residual_12/sequential_12/conv_bn_activation_37/depthwise_conv2d_12/depthwise/required_space_to_batch_paddings/strided_slice_7/stack", "op": "Const", "input": ["^Func/StatefulPartitionedCall/matting_network_wrapper/StatefulPartitionedCall/input_control_node/_326"], "attr": {"dtype": {"type": "DT_INT32"}, "value": {"tensor": {"dtype": "DT_INT32", "tensorShape": {"dim": [{"size": "1"}]}}}}}, {"name": "StatefulPartitionedCall/matting_network_wrapper/StatefulPartitionedCall/mobile_net_v3_encoder/inverted_residual_12/sequential_12/conv_bn_activation_37/depthwise_conv2d_12/depthwise/required_space_to_batch_paddings/strided_slice_7/stack_1", "op": "Const", "input": ["^Func/StatefulPartitionedCall/matting_network_wrapper/StatefulPartitionedCall/input_control_node/_326"], "attr": {"dtype": {"type": "DT_INT32"}, "value": {"tensor": {"dtype": "DT_INT32", "tensorShape": {"dim": [{"size": "1"}]}}}}}, {"name": "StatefulPartitionedCall/matting_network_wrapper/StatefulPartitionedCall/mobile_net_v3_encoder/inverted_residual_12/sequential_12/conv_bn_activation_37/depthwise_conv2d_12/depthwise/required_space_to_batch_paddings/strided_slice_7/stack_2", "op": "Const", "input": ["^Func/StatefulPartitionedCall/matting_network_wrapper/StatefulPartitionedCall/input_control_node/_326"], "attr": {"value": {"tensor": {"dtype": "DT_INT32", "tensorShape": {"dim": [{"size": "1"}]}}}, "dtype": {"type": "DT_INT32"}}}, {"name": "StatefulPartitionedCall/matting_network_wrapper/StatefulPartitionedCall/mobile_net_v3_encoder/inverted_residual_12/sequential_12/conv_bn_activation_37/hardswish_14/add/y", "op": "Const", "input": ["^Func/StatefulPartitionedCall/matting_network_wrapper/StatefulPartitionedCall/input_control_node/_326"], "attr": {"value": {"tensor": {"dtype": "DT_FLOAT", "tensorShape": {}}}, "dtype": {"type": "DT_FLOAT"}}}, {"name": "StatefulPartitionedCall/matting_network_wrapper/StatefulPartitionedCall/mobile_net_v3_encoder/conv_bn_activation_45/hardswish_19/add/y", "op": "Const", "input": ["^Func/StatefulPartitionedCall/matting_network_wrapper/StatefulPartitionedCall/input_control_node/_326"], "attr": {"dtype": {"type": "DT_FLOAT"}, "value": {"tensor": {"dtype": "DT_FLOAT", "tensorShape": {}}}}}, {"name": "StatefulPartitionedCall/matting_network_wrapper/StatefulPartitionedCall/lraspp/Mean/reduction_indices", "op": "Const", "input": ["^Func/StatefulPartitionedCall/matting_network_wrapper/StatefulPartitionedCall/input_control_node/_326"], "attr": {"dtype": {"type": "DT_INT32"}, "value": {"tensor": {"dtype": "DT_INT32", "tensorShape": {"dim": [{"size": "2"}]}}}}}, {"name": "StatefulPartitionedCall/matting_network_wrapper/StatefulPartitionedCall/lraspp/conv2d_48/Conv2D/ReadVariableOp", "op": "Const", "input": ["^Func/StatefulPartitionedCall/matting_network_wrapper/StatefulPartitionedCall/input_control_node/_326"], "attr": {"value": {"tensor": {"dtype": "DT_FLOAT", "tensorShape": {"dim": [{"size": "1"}, {"size": "1"}, {"size": "960"}, {"size": "128"}]}}}, "dtype": {"type": "DT_FLOAT"}}}, {"name": "StatefulPartitionedCall/matting_network_wrapper/StatefulPartitionedCall/recurrent_decoder/bottleneck_block/conv_gru/concat_1/axis", "op": "Const", "input": ["^Func/StatefulPartitionedCall/matting_network_wrapper/StatefulPartitionedCall/input_control_node/_326"], "attr": {"dtype": {"type": "DT_INT32"}, "value": {"tensor": {"dtype": "DT_INT32", "tensorShape": {}}}}}, {"name": "StatefulPartitionedCall/matting_network_wrapper/StatefulPartitionedCall/recurrent_decoder/bottleneck_block/conv_gru/conv2d_50/Conv2D/ReadVariableOp", "op": "Const", "input": ["^Func/StatefulPartitionedCall/matting_network_wrapper/StatefulPartitionedCall/input_control_node/_326"], "attr": {"dtype": {"type": "DT_FLOAT"}, "value": {"tensor": {"dtype": "DT_FLOAT", "tensorShape": {"dim": [{"size": "3"}, {"size": "3"}, {"size": "128"}, {"size": "64"}]}}}}}, {"name": "StatefulPartitionedCall/matting_network_wrapper/StatefulPartitionedCall/recurrent_decoder/bottleneck_block/conv_gru/conv2d_50/BiasAdd/ReadVariableOp", "op": "Const", "input": ["^Func/StatefulPartitionedCall/matting_network_wrapper/StatefulPartitionedCall/input_control_node/_326"], "attr": {"dtype": {"type": "DT_FLOAT"}, "value": {"tensor": {"dtype": "DT_FLOAT", "tensorShape": {"dim": [{"size": "64"}]}}}}}, {"name": "StatefulPartitionedCall/matting_network_wrapper/StatefulPartitionedCall/recurrent_decoder/bottleneck_block/concat/axis", "op": "Const", "input": ["^Func/StatefulPartitionedCall/matting_network_wrapper/StatefulPartitionedCall/input_control_node/_326"], "attr": {"dtype": {"type": "DT_INT32"}, "value": {"tensor": {"dtype": "DT_INT32", "tensorShape": {}}}}}, {"name": "StatefulPartitionedCall/matting_network_wrapper/StatefulPartitionedCall/recurrent_decoder/upsampling_block/up_sampling2d/strided_slice/stack", "op": "Const", "input": ["^Func/StatefulPartitionedCall/matting_network_wrapper/StatefulPartitionedCall/input_control_node/_326"], "attr": {"dtype": {"type": "DT_INT32"}, "value": {"tensor": {"dtype": "DT_INT32", "tensorShape": {"dim": [{"size": "1"}]}}}}}, {"name": "StatefulPartitionedCall/matting_network_wrapper/StatefulPartitionedCall/recurrent_decoder/upsampling_block/up_sampling2d/strided_slice/stack_1", "op": "Const", "input": ["^Func/StatefulPartitionedCall/matting_network_wrapper/StatefulPartitionedCall/input_control_node/_326"], "attr": {"value": {"tensor": {"dtype": "DT_INT32", "tensorShape": {"dim": [{"size": "1"}]}}}, "dtype": {"type": "DT_INT32"}}}, {"name": "StatefulPartitionedCall/matting_network_wrapper/StatefulPartitionedCall/recurrent_decoder/upsampling_block/up_sampling2d/strided_slice/stack_2", "op": "Const", "input": ["^Func/StatefulPartitionedCall/matting_network_wrapper/StatefulPartitionedCall/input_control_node/_326"], "attr": {"dtype": {"type": "DT_INT32"}, "value": {"tensor": {"dtype": "DT_INT32", "tensorShape": {"dim": [{"size": "1"}]}}}}}, {"name": "StatefulPartitionedCall/matting_network_wrapper/StatefulPartitionedCall/recurrent_decoder/upsampling_block/up_sampling2d/Const", "op": "Const", "input": ["^Func/StatefulPartitionedCall/matting_network_wrapper/StatefulPartitionedCall/input_control_node/_326"], "attr": {"value": {"tensor": {"dtype": "DT_INT32", "tensorShape": {"dim": [{"size": "2"}]}}}, "dtype": {"type": "DT_INT32"}}}, {"name": "StatefulPartitionedCall/matting_network_wrapper/StatefulPartitionedCall/recurrent_decoder/upsampling_block/crop_to_bounding_box/stack", "op": "Const", "input": ["^Func/StatefulPartitionedCall/matting_network_wrapper/StatefulPartitionedCall/input_control_node/_326"], "attr": {"value": {"tensor": {"dtype": "DT_INT32", "tensorShape": {"dim": [{"size": "4"}]}}}, "dtype": {"type": "DT_INT32"}}}, {"name": "StatefulPartitionedCall/matting_network_wrapper/StatefulPartitionedCall/recurrent_decoder/upsampling_block/crop_to_bounding_box/stack_1/0", "op": "Const", "input": ["^Func/StatefulPartitionedCall/matting_network_wrapper/StatefulPartitionedCall/input_control_node/_326"], "attr": {"value": {"tensor": {"dtype": "DT_INT32", "tensorShape": {}}}, "dtype": {"type": "DT_INT32"}}}, {"name": "StatefulPartitionedCall/matting_network_wrapper/StatefulPartitionedCall/recurrent_decoder/upsampling_block/strided_slice/stack", "op": "Const", "input": ["^Func/StatefulPartitionedCall/matting_network_wrapper/StatefulPartitionedCall/input_control_node/_326"], "attr": {"dtype": {"type": "DT_INT32"}, "value": {"tensor": {"dtype": "DT_INT32", "tensorShape": {"dim": [{"size": "1"}]}}}}}, {"name": "StatefulPartitionedCall/matting_network_wrapper/StatefulPartitionedCall/recurrent_decoder/upsampling_block/strided_slice/stack_1", "op": "Const", "input": ["^Func/StatefulPartitionedCall/matting_network_wrapper/StatefulPartitionedCall/input_control_node/_326"], "attr": {"dtype": {"type": "DT_INT32"}, "value": {"tensor": {"dtype": "DT_INT32", "tensorShape": {"dim": [{"size": "1"}]}}}}}, {"name": "StatefulPartitionedCall/matting_network_wrapper/StatefulPartitionedCall/recurrent_decoder/upsampling_block/strided_slice/stack_2", "op": "Const", "input": ["^Func/StatefulPartitionedCall/matting_network_wrapper/StatefulPartitionedCall/input_control_node/_326"], "attr": {"value": {"tensor": {"dtype": "DT_INT32", "tensorShape": {"dim": [{"size": "1"}]}}}, "dtype": {"type": "DT_INT32"}}}, {"name": "StatefulPartitionedCall/matting_network_wrapper/StatefulPartitionedCall/recurrent_decoder/upsampling_block/strided_slice_1/stack", "op": "Const", "input": ["^Func/StatefulPartitionedCall/matting_network_wrapper/StatefulPartitionedCall/input_control_node/_326"], "attr": {"value": {"tensor": {"dtype": "DT_INT32", "tensorShape": {"dim": [{"size": "1"}]}}}, "dtype": {"type": "DT_INT32"}}}, {"name": "StatefulPartitionedCall/matting_network_wrapper/StatefulPartitionedCall/recurrent_decoder/upsampling_block/strided_slice_1/stack_1", "op": "Const", "input": ["^Func/StatefulPartitionedCall/matting_network_wrapper/StatefulPartitionedCall/input_control_node/_326"], "attr": {"value": {"tensor": {"dtype": "DT_INT32", "tensorShape": {"dim": [{"size": "1"}]}}}, "dtype": {"type": "DT_INT32"}}}, {"name": "StatefulPartitionedCall/matting_network_wrapper/StatefulPartitionedCall/recurrent_decoder/upsampling_block/strided_slice_1/stack_2", "op": "Const", "input": ["^Func/StatefulPartitionedCall/matting_network_wrapper/StatefulPartitionedCall/input_control_node/_326"], "attr": {"dtype": {"type": "DT_INT32"}, "value": {"tensor": {"dtype": "DT_INT32", "tensorShape": {"dim": [{"size": "1"}]}}}}}, {"name": "StatefulPartitionedCall/matting_network_wrapper/StatefulPartitionedCall/recurrent_decoder/upsampling_block/crop_to_bounding_box/stack_1/3", "op": "Const", "input": ["^Func/StatefulPartitionedCall/matting_network_wrapper/StatefulPartitionedCall/input_control_node/_326"], "attr": {"value": {"tensor": {"dtype": "DT_INT32", "tensorShape": {}}}, "dtype": {"type": "DT_INT32"}}}, {"name": "ConstantFolding/StatefulPartitionedCall/matting_network_wrapper/StatefulPartitionedCall/mobile_net_v3_encoder/inverted_residual_5/sequential_5/squeeze_excitation_2/truediv_recip", "op": "Const", "input": ["^Func/StatefulPartitionedCall/matting_network_wrapper/StatefulPartitionedCall/input_control_node/_326"], "attr": {"value": {"tensor": {"dtype": "DT_FLOAT", "tensorShape": {}}}, "dtype": {"type": "DT_FLOAT"}}}, {"name": "StatefulPartitionedCall/matting_network_wrapper/StatefulPartitionedCall/mobile_net_v3_encoder/inverted_residual_5/sequential_5/squeeze_excitation_2/Mean/reduction_indices", "op": "Const", "input": ["^Func/StatefulPartitionedCall/matting_network_wrapper/StatefulPartitionedCall/input_control_node/_326"], "attr": {"value": {"tensor": {"dtype": "DT_INT32", "tensorShape": {"dim": [{"size": "2"}]}}}, "dtype": {"type": "DT_INT32"}}}, {"name": "StatefulPartitionedCall/matting_network_wrapper/StatefulPartitionedCall/mobile_net_v3_encoder/inverted_residual_5/sequential_5/squeeze_excitation_2/conv2d_15/Conv2D/ReadVariableOp", "op": "Const", "input": ["^Func/StatefulPartitionedCall/matting_network_wrapper/StatefulPartitionedCall/input_control_node/_326"], "attr": {"dtype": {"type": "DT_FLOAT"}, "value": {"tensor": {"dtype": "DT_FLOAT", "tensorShape": {"dim": [{"size": "1"}, {"size": "1"}, {"size": "120"}, {"size": "32"}]}}}}}, {"name": "StatefulPartitionedCall/matting_network_wrapper/StatefulPartitionedCall/mobile_net_v3_encoder/inverted_residual_5/sequential_5/squeeze_excitation_2/conv2d_15/BiasAdd/ReadVariableOp", "op": "Const", "input": ["^Func/StatefulPartitionedCall/matting_network_wrapper/StatefulPartitionedCall/input_control_node/_326"], "attr": {"dtype": {"type": "DT_FLOAT"}, "value": {"tensor": {"dtype": "DT_FLOAT", "tensorShape": {"dim": [{"size": "32"}]}}}}}, {"name": "StatefulPartitionedCall/matting_network_wrapper/StatefulPartitionedCall/mobile_net_v3_encoder/inverted_residual_5/sequential_5/squeeze_excitation_2/conv2d_16/Conv2D/ReadVariableOp", "op": "Const", "input": ["^Func/StatefulPartitionedCall/matting_network_wrapper/StatefulPartitionedCall/input_control_node/_326"], "attr": {"value": {"tensor": {"dtype": "DT_FLOAT", "tensorShape": {"dim": [{"size": "1"}, {"size": "1"}, {"size": "32"}, {"size": "120"}]}}}, "dtype": {"type": "DT_FLOAT"}}}, {"name": "StatefulPartitionedCall/matting_network_wrapper/StatefulPartitionedCall/mobile_net_v3_encoder/inverted_residual_5/sequential_5/squeeze_excitation_2/conv2d_16/BiasAdd/ReadVariableOp", "op": "Const", "input": ["^Func/StatefulPartitionedCall/matting_network_wrapper/StatefulPartitionedCall/input_control_node/_326"], "attr": {"value": {"tensor": {"dtype": "DT_FLOAT", "tensorShape": {"dim": [{"size": "120"}]}}}, "dtype": {"type": "DT_FLOAT"}}}, {"name": "StatefulPartitionedCall/matting_network_wrapper/StatefulPartitionedCall/mobile_net_v3_encoder/inverted_residual_5/sequential_5/squeeze_excitation_2/add/y", "op": "Const", "input": ["^Func/StatefulPartitionedCall/matting_network_wrapper/StatefulPartitionedCall/input_control_node/_326"], "attr": {"dtype": {"type": "DT_FLOAT"}, "value": {"tensor": {"dtype": "DT_FLOAT", "tensorShape": {}}}}}, {"name": "StatefulPartitionedCall/matting_network_wrapper/StatefulPartitionedCall/mobile_net_v3_encoder/inverted_residual_5/sequential_5/conv_bn_activation_16/zero_padding2d_6/Pad/paddings", "op": "Const", "input": ["^Func/StatefulPartitionedCall/matting_network_wrapper/StatefulPartitionedCall/input_control_node/_326"], "attr": {"dtype": {"type": "DT_INT32"}, "value": {"tensor": {"dtype": "DT_INT32", "tensorShape": {"dim": [{"size": "4"}, {"size": "2"}]}}}}}, {"name": "ConstantFolding/StatefulPartitionedCall/matting_network_wrapper/StatefulPartitionedCall/mobile_net_v3_encoder/inverted_residual_4/sequential_4/squeeze_excitation_1/truediv_recip", "op": "Const", "input": ["^Func/StatefulPartitionedCall/matting_network_wrapper/StatefulPartitionedCall/input_control_node/_326"], "attr": {"dtype": {"type": "DT_FLOAT"}, "value": {"tensor": {"dtype": "DT_FLOAT", "tensorShape": {}}}}}, {"name": "StatefulPartitionedCall/matting_network_wrapper/StatefulPartitionedCall/mobile_net_v3_encoder/inverted_residual_4/sequential_4/squeeze_excitation_1/Mean/reduction_indices", "op": "Const", "input": ["^Func/StatefulPartitionedCall/matting_network_wrapper/StatefulPartitionedCall/input_control_node/_326"], "attr": {"value": {"tensor": {"dtype": "DT_INT32", "tensorShape": {"dim": [{"size": "2"}]}}}, "dtype": {"type": "DT_INT32"}}}, {"name": "StatefulPartitionedCall/matting_network_wrapper/StatefulPartitionedCall/mobile_net_v3_encoder/inverted_residual_4/sequential_4/squeeze_excitation_1/conv2d_11/Conv2D/ReadVariableOp", "op": "Const", "input": ["^Func/StatefulPartitionedCall/matting_network_wrapper/StatefulPartitionedCall/input_control_node/_326"], "attr": {"dtype": {"type": "DT_FLOAT"}, "value": {"tensor": {"dtype": "DT_FLOAT", "tensorShape": {"dim": [{"size": "1"}, {"size": "1"}, {"size": "120"}, {"size": "32"}]}}}}}, {"name": "StatefulPartitionedCall/matting_network_wrapper/StatefulPartitionedCall/mobile_net_v3_encoder/inverted_residual_4/sequential_4/squeeze_excitation_1/conv2d_11/BiasAdd/ReadVariableOp", "op": "Const", "input": ["^Func/StatefulPartitionedCall/matting_network_wrapper/StatefulPartitionedCall/input_control_node/_326"], "attr": {"value": {"tensor": {"dtype": "DT_FLOAT", "tensorShape": {"dim": [{"size": "32"}]}}}, "dtype": {"type": "DT_FLOAT"}}}, {"name": "StatefulPartitionedCall/matting_network_wrapper/StatefulPartitionedCall/mobile_net_v3_encoder/inverted_residual_4/sequential_4/squeeze_excitation_1/conv2d_12/Conv2D/ReadVariableOp", "op": "Const", "input": ["^Func/StatefulPartitionedCall/matting_network_wrapper/StatefulPartitionedCall/input_control_node/_326"], "attr": {"dtype": {"type": "DT_FLOAT"}, "value": {"tensor": {"dtype": "DT_FLOAT", "tensorShape": {"dim": [{"size": "1"}, {"size": "1"}, {"size": "32"}, {"size": "120"}]}}}}}, {"name": "StatefulPartitionedCall/matting_network_wrapper/StatefulPartitionedCall/mobile_net_v3_encoder/inverted_residual_4/sequential_4/squeeze_excitation_1/conv2d_12/BiasAdd/ReadVariableOp", "op": "Const", "input": ["^Func/StatefulPartitionedCall/matting_network_wrapper/StatefulPartitionedCall/input_control_node/_326"], "attr": {"value": {"tensor": {"dtype": "DT_FLOAT", "tensorShape": {"dim": [{"size": "120"}]}}}, "dtype": {"type": "DT_FLOAT"}}}, {"name": "StatefulPartitionedCall/matting_network_wrapper/StatefulPartitionedCall/mobile_net_v3_encoder/inverted_residual_4/sequential_4/squeeze_excitation_1/add/y", "op": "Const", "input": ["^Func/StatefulPartitionedCall/matting_network_wrapper/StatefulPartitionedCall/input_control_node/_326"], "attr": {"value": {"tensor": {"dtype": "DT_FLOAT", "tensorShape": {}}}, "dtype": {"type": "DT_FLOAT"}}}, {"name": "StatefulPartitionedCall/matting_network_wrapper/StatefulPartitionedCall/mobile_net_v3_encoder/inverted_residual_4/sequential_4/conv_bn_activation_13/zero_padding2d_5/Pad/paddings", "op": "Const", "input": ["^Func/StatefulPartitionedCall/matting_network_wrapper/StatefulPartitionedCall/input_control_node/_326"], "attr": {"value": {"tensor": {"dtype": "DT_INT32", "tensorShape": {"dim": [{"size": "4"}, {"size": "2"}]}}}, "dtype": {"type": "DT_INT32"}}}, {"name": "ConstantFolding/StatefulPartitionedCall/matting_network_wrapper/StatefulPartitionedCall/mobile_net_v3_encoder/inverted_residual_3/sequential_3/squeeze_excitation/truediv_recip", "op": "Const", "input": ["^Func/StatefulPartitionedCall/matting_network_wrapper/StatefulPartitionedCall/input_control_node/_326"], "attr": {"dtype": {"type": "DT_FLOAT"}, "value": {"tensor": {"dtype": "DT_FLOAT", "tensorShape": {}}}}}, {"name": "StatefulPartitionedCall/matting_network_wrapper/StatefulPartitionedCall/mobile_net_v3_encoder/inverted_residual_3/sequential_3/squeeze_excitation/Mean/reduction_indices", "op": "Const", "input": ["^Func/StatefulPartitionedCall/matting_network_wrapper/StatefulPartitionedCall/input_control_node/_326"], "attr": {"dtype": {"type": "DT_INT32"}, "value": {"tensor": {"dtype": "DT_INT32", "tensorShape": {"dim": [{"size": "2"}]}}}}}, {"name": "StatefulPartitionedCall/matting_network_wrapper/StatefulPartitionedCall/mobile_net_v3_encoder/inverted_residual_3/sequential_3/squeeze_excitation/conv2d_7/Conv2D/ReadVariableOp", "op": "Const", "input": ["^Func/StatefulPartitionedCall/matting_network_wrapper/StatefulPartitionedCall/input_control_node/_326"], "attr": {"value": {"tensor": {"dtype": "DT_FLOAT", "tensorShape": {"dim": [{"size": "1"}, {"size": "1"}, {"size": "72"}, {"size": "24"}]}}}, "dtype": {"type": "DT_FLOAT"}}}, {"name": "StatefulPartitionedCall/matting_network_wrapper/StatefulPartitionedCall/mobile_net_v3_encoder/inverted_residual_3/sequential_3/squeeze_excitation/conv2d_7/BiasAdd/ReadVariableOp", "op": "Const", "input": ["^Func/StatefulPartitionedCall/matting_network_wrapper/StatefulPartitionedCall/input_control_node/_326"], "attr": {"value": {"tensor": {"dtype": "DT_FLOAT", "tensorShape": {"dim": [{"size": "24"}]}}}, "dtype": {"type": "DT_FLOAT"}}}, {"name": "StatefulPartitionedCall/matting_network_wrapper/StatefulPartitionedCall/mobile_net_v3_encoder/inverted_residual_3/sequential_3/squeeze_excitation/conv2d_8/Conv2D/ReadVariableOp", "op": "Const", "input": ["^Func/StatefulPartitionedCall/matting_network_wrapper/StatefulPartitionedCall/input_control_node/_326"], "attr": {"value": {"tensor": {"dtype": "DT_FLOAT", "tensorShape": {"dim": [{"size": "1"}, {"size": "1"}, {"size": "24"}, {"size": "72"}]}}}, "dtype": {"type": "DT_FLOAT"}}}, {"name": "StatefulPartitionedCall/matting_network_wrapper/StatefulPartitionedCall/mobile_net_v3_encoder/inverted_residual_3/sequential_3/squeeze_excitation/conv2d_8/BiasAdd/ReadVariableOp", "op": "Const", "input": ["^Func/StatefulPartitionedCall/matting_network_wrapper/StatefulPartitionedCall/input_control_node/_326"], "attr": {"dtype": {"type": "DT_FLOAT"}, "value": {"tensor": {"dtype": "DT_FLOAT", "tensorShape": {"dim": [{"size": "72"}]}}}}}, {"name": "StatefulPartitionedCall/matting_network_wrapper/StatefulPartitionedCall/mobile_net_v3_encoder/inverted_residual_3/sequential_3/squeeze_excitation/add/y", "op": "Const", "input": ["^Func/StatefulPartitionedCall/matting_network_wrapper/StatefulPartitionedCall/input_control_node/_326"], "attr": {"value": {"tensor": {"dtype": "DT_FLOAT", "tensorShape": {}}}, "dtype": {"type": "DT_FLOAT"}}}, {"name": "StatefulPartitionedCall/matting_network_wrapper/StatefulPartitionedCall/mobile_net_v3_encoder/inverted_residual_3/sequential_3/conv_bn_activation_10/zero_padding2d_4/Pad/paddings", "op": "Const", "input": ["^Func/StatefulPartitionedCall/matting_network_wrapper/StatefulPartitionedCall/input_control_node/_326"], "attr": {"dtype": {"type": "DT_INT32"}, "value": {"tensor": {"dtype": "DT_INT32", "tensorShape": {"dim": [{"size": "4"}, {"size": "2"}]}}}}}, {"name": "StatefulPartitionedCall/matting_network_wrapper/StatefulPartitionedCall/recurrent_decoder/upsampling_block/concat/axis", "op": "Const", "input": ["^Func/StatefulPartitionedCall/matting_network_wrapper/StatefulPartitionedCall/input_control_node/_326"], "attr": {"value": {"tensor": {"dtype": "DT_INT32", "tensorShape": {}}}, "dtype": {"type": "DT_INT32"}}}, {"name": "StatefulPartitionedCall/matting_network_wrapper/StatefulPartitionedCall/recurrent_decoder/upsampling_block/conv_gru_1/concat_1/axis", "op": "Const", "input": ["^Func/StatefulPartitionedCall/matting_network_wrapper/StatefulPartitionedCall/input_control_node/_326"], "attr": {"value": {"tensor": {"dtype": "DT_INT32", "tensorShape": {}}}, "dtype": {"type": "DT_INT32"}}}, {"name": "StatefulPartitionedCall/matting_network_wrapper/StatefulPartitionedCall/recurrent_decoder/upsampling_block/conv_gru_1/conv2d_53/Conv2D/ReadVariableOp", "op": "Const", "input": ["^Func/StatefulPartitionedCall/matting_network_wrapper/StatefulPartitionedCall/input_control_node/_326"], "attr": {"dtype": {"type": "DT_FLOAT"}, "value": {"tensor": {"dtype": "DT_FLOAT", "tensorShape": {"dim": [{"size": "3"}, {"size": "3"}, {"size": "80"}, {"size": "40"}]}}}}}, {"name": "StatefulPartitionedCall/matting_network_wrapper/StatefulPartitionedCall/recurrent_decoder/upsampling_block/conv_gru_1/conv2d_53/BiasAdd/ReadVariableOp", "op": "Const", "input": ["^Func/StatefulPartitionedCall/matting_network_wrapper/StatefulPartitionedCall/input_control_node/_326"], "attr": {"value": {"tensor": {"dtype": "DT_FLOAT", "tensorShape": {"dim": [{"size": "40"}]}}}, "dtype": {"type": "DT_FLOAT"}}}, {"name": "StatefulPartitionedCall/matting_network_wrapper/StatefulPartitionedCall/recurrent_decoder/upsampling_block/concat_1/axis", "op": "Const", "input": ["^Func/StatefulPartitionedCall/matting_network_wrapper/StatefulPartitionedCall/input_control_node/_326"], "attr": {"dtype": {"type": "DT_INT32"}, "value": {"tensor": {"dtype": "DT_INT32", "tensorShape": {}}}}}, {"name": "StatefulPartitionedCall/matting_network_wrapper/StatefulPartitionedCall/recurrent_decoder/upsampling_block_1/up_sampling2d_1/strided_slice/stack", "op": "Const", "input": ["^Func/StatefulPartitionedCall/matting_network_wrapper/StatefulPartitionedCall/input_control_node/_326"], "attr": {"value": {"tensor": {"dtype": "DT_INT32", "tensorShape": {"dim": [{"size": "1"}]}}}, "dtype": {"type": "DT_INT32"}}}, {"name": "StatefulPartitionedCall/matting_network_wrapper/StatefulPartitionedCall/recurrent_decoder/upsampling_block_1/up_sampling2d_1/strided_slice/stack_1", "op": "Const", "input": ["^Func/StatefulPartitionedCall/matting_network_wrapper/StatefulPartitionedCall/input_control_node/_326"], "attr": {"value": {"tensor": {"dtype": "DT_INT32", "tensorShape": {"dim": [{"size": "1"}]}}}, "dtype": {"type": "DT_INT32"}}}, {"name": "StatefulPartitionedCall/matting_network_wrapper/StatefulPartitionedCall/recurrent_decoder/upsampling_block_1/up_sampling2d_1/strided_slice/stack_2", "op": "Const", "input": ["^Func/StatefulPartitionedCall/matting_network_wrapper/StatefulPartitionedCall/input_control_node/_326"], "attr": {"dtype": {"type": "DT_INT32"}, "value": {"tensor": {"dtype": "DT_INT32", "tensorShape": {"dim": [{"size": "1"}]}}}}}, {"name": "StatefulPartitionedCall/matting_network_wrapper/StatefulPartitionedCall/recurrent_decoder/upsampling_block_1/up_sampling2d_1/Const", "op": "Const", "input": ["^Func/StatefulPartitionedCall/matting_network_wrapper/StatefulPartitionedCall/input_control_node/_326"], "attr": {"dtype": {"type": "DT_INT32"}, "value": {"tensor": {"dtype": "DT_INT32", "tensorShape": {"dim": [{"size": "2"}]}}}}}, {"name": "StatefulPartitionedCall/matting_network_wrapper/StatefulPartitionedCall/recurrent_decoder/upsampling_block_1/crop_to_bounding_box/stack", "op": "Const", "input": ["^Func/StatefulPartitionedCall/matting_network_wrapper/StatefulPartitionedCall/input_control_node/_326"], "attr": {"value": {"tensor": {"dtype": "DT_INT32", "tensorShape": {"dim": [{"size": "4"}]}}}, "dtype": {"type": "DT_INT32"}}}, {"name": "StatefulPartitionedCall/matting_network_wrapper/StatefulPartitionedCall/recurrent_decoder/upsampling_block_1/crop_to_bounding_box/stack_1/0", …
ulPartitionedCall/matting_network_wrapper/StatefulPartitionedCall/mobile_net_v3_encoder/inverted_residual_12/sequential_12/conv_bn_activation_37/depthwise_conv2d_12/depthwise/required_space_to_batch_paddings/strided_slice_4", "shape": [], "dtype": "int32"}, {"name": "StatefulPartitionedCall/matting_network_wrapper/StatefulPartitionedCall/mobile_net_v3_encoder/inverted_residual_12/sequential_12/conv_bn_activation_37/depthwise_conv2d_12/depthwise/required_space_to_batch_paddings/strided_slice_5/stack", "shape": [1], "dtype": "int32"}, {"name": "StatefulPartitionedCall/matting_network_wrapper/StatefulPartitionedCall/mobile_net_v3_encoder/inverted_residual_12/sequential_12/conv_bn_activation_37/depthwise_conv2d_12/depthwise/required_space_to_batch_paddings/strided_slice_5/stack_1", "shape": [1], "dtype": "int32"}, {"name": "StatefulPartitionedCall/matting_network_wrapper/StatefulPartitionedCall/mobile_net_v3_encoder/inverted_residual_12/sequential_12/conv_bn_activation_37/depthwise_conv2d_12/depthwise/required_space_to_batch_paddings/strided_slice_5/stack_2", "shape": [1], "dtype": "int32"}, {"name": "StatefulPartitionedCall/matting_network_wrapper/StatefulPartitionedCall/mobile_net_v3_encoder/inverted_residual_12/sequential_12/conv_bn_activation_37/depthwise_conv2d_12/depthwise/ReadVariableOp", "shape": [5, 5, 672, 1], "dtype": "float32", "quantization": {"dtype": "uint8", "min": -0.8783895871218513, "scale": 0.006229713383842917, "original_dtype": "float32"}}, {"name": "StatefulPartitionedCall/matting_network_wrapper/StatefulPartitionedCall/mobile_net_v3_encoder/inverted_residual_12/sequential_12/conv_bn_activation_37/depthwise_conv2d_12/depthwise/BatchToSpaceND/block_shape", "shape": [2], "dtype": "int32"}, {"name": "StatefulPartitionedCall/matting_network_wrapper/StatefulPartitionedCall/mobile_net_v3_encoder/inverted_residual_12/sequential_12/conv_bn_activation_37/depthwise_conv2d_12/depthwise/required_space_to_batch_paddings/crops/0/0", "shape": [], "dtype": "int32"}, {"name": "StatefulPartitionedCall/matting_network_wrapper/StatefulPartitionedCall/mobile_net_v3_encoder/inverted_residual_12/sequential_12/conv_bn_activation_37/depthwise_conv2d_12/depthwise/required_space_to_batch_paddings/strided_slice_6/stack", "shape": [1], "dtype": "int32"}, {"name": "StatefulPartitionedCall/matting_network_wrapper/StatefulPartitionedCall/mobile_net_v3_encoder/inverted_residual_12/sequential_12/conv_bn_activation_37/depthwise_conv2d_12/depthwise/required_space_to_batch_paddings/strided_slice_6/stack_1", "shape": [1], "dtype": "int32"}, {"name": "StatefulPartitionedCall/matting_network_wrapper/StatefulPartitionedCall/mobile_net_v3_encoder/inverted_residual_12/sequential_12/conv_bn_activation_37/depthwise_conv2d_12/depthwise/required_space_to_batch_paddings/strided_slice_6/stack_2", "shape": [1], "dtype": "int32"}, {"name": "StatefulPartitionedCall/matting_network_wrapper/StatefulPartitionedCall/mobile_net_v3_encoder/inverted_residual_12/sequential_12/conv_bn_activation_37/depthwise_conv2d_12/depthwise/required_space_to_batch_paddings/crops/1/0", "shape": [], "dtype": "int32"}, {"name": "StatefulPartitionedCall/matting_network_wrapper/StatefulPartitionedCall/mobile_net_v3_encoder/inverted_residual_12/sequential_12/conv_bn_activation_37/depthwise_conv2d_12/depthwise/strided_slice/stack", "shape": [1], "dtype": "int32"}, {"name": "StatefulPartitionedCall/matting_network_wrapper/StatefulPartitionedCall/mobile_net_v3_encoder/inverted_residual_12/sequential_12/conv_bn_activation_37/depthwise_conv2d_12/depthwise/strided_slice/stack_1", "shape": [1], "dtype": "int32"}, {"name": "StatefulPartitionedCall/matting_network_wrapper/StatefulPartitionedCall/mobile_net_v3_encoder/inverted_residual_12/sequential_12/conv_bn_activation_37/depthwise_conv2d_12/depthwise/strided_slice/stack_2", "shape": [1], "dtype": "int32"}, {"name": "ConstantFolding/StatefulPartitionedCall/matting_network_wrapper/StatefulPartitionedCall/mobile_net_v3_encoder/inverted_residual_12/sequential_12/conv_bn_activation_36/hardswish_13/truediv_recip", "shape": [], "dtype": "float32", "quantization": {"dtype": "uint8", "min": 0.1666666716337204, "scale": 1.0, "original_dtype": "float32"}}, {"name": "ConstantFolding/StatefulPartitionedCall/matting_network_wrapper/StatefulPartitionedCall/mobile_net_v3_encoder/inverted_residual_11/sequential_11/squeeze_excitation_4/truediv_recip", "shape": [], "dtype": "float32", "quantization": {"dtype": "uint8", "min": 0.1666666716337204, "scale": 1.0, "original_dtype": "float32"}}, {"name": "StatefulPartitionedCall/matting_network_wrapper/StatefulPartitionedCall/mobile_net_v3_encoder/inverted_residual_11/sequential_11/squeeze_excitation_4/Mean/reduction_indices", "shape": [2], "dtype": "int32"}, {"name": "StatefulPartitionedCall/matting_network_wrapper/StatefulPartitionedCall/mobile_net_v3_encoder/inverted_residual_11/sequential_11/squeeze_excitation_4/conv2d_31/Conv2D/ReadVariableOp", "shape": [1, 1, 672, 168], "dtype": "float32", "quantization": {"dtype": "uint8", "min": -1.3419573498707194, "scale": 0.010243949235654345, "original_dtype": "float32"}}, {"name": "StatefulPartitionedCall/matting_network_wrapper/StatefulPartitionedCall/mobile_net_v3_encoder/inverted_residual_11/sequential_11/squeeze_excitation_4/conv2d_31/BiasAdd/ReadVariableOp", "shape": [168], "dtype": "float32", "quantization": {"dtype": "uint8", "min": -0.2086056193884681, "scale": 0.0026744310178008733, "original_dtype": "float32"}}, {"name": "StatefulPartitionedCall/matting_network_wrapper/StatefulPartitionedCall/mobile_net_v3_encoder/inverted_residual_11/sequential_11/squeeze_excitation_4/conv2d_32/Conv2D/ReadVariableOp", "shape": [1, 1, 168, 672], "dtype": "float32", "quantization": {"dtype": "uint8", "min": -1.309282377654431, "scale": 0.015224213693656173, "original_dtype": "float32"}}, {"name": "StatefulPartitionedCall/matting_network_wrapper/StatefulPartitionedCall/mobile_net_v3_encoder/inverted_residual_11/sequential_11/squeeze_excitation_4/conv2d_32/BiasAdd/ReadVariableOp", "shape": [672], "dtype": "float32", "quantization": {"dtype": "uint8", "min": -0.41278718733320047, "scale": 0.0023587839276182883, "original_dtype": "float32"}}, {"name": "StatefulPartitionedCall/matting_network_wrapper/StatefulPartitionedCall/mobile_net_v3_encoder/inverted_residual_11/sequential_11/squeeze_excitation_4/add/y", "shape": [], "dtype": "float32", "quantization": {"dtype": "uint8", "min": 3.0, "scale": 1.0, "original_dtype": "float32"}}, {"name": "ConstantFolding/StatefulPartitionedCall/matting_network_wrapper/StatefulPartitionedCall/mobile_net_v3_encoder/inverted_residual_11/sequential_11/conv_bn_activation_34/hardswish_12/truediv_recip", "shape": [], "dtype": "float32", "quantization": {"dtype": "uint8", "min": 0.1666666716337204, "scale": 1.0, "original_dtype": "float32"}}, {"name": "ConstantFolding/StatefulPartitionedCall/matting_network_wrapper/StatefulPartitionedCall/mobile_net_v3_encoder/inverted_residual_11/sequential_11/conv_bn_activation_33/hardswish_11/truediv_recip", "shape": [], "dtype": "float32", "quantization": {"dtype": "uint8", "min": 0.1666666716337204, "scale": 1.0, "original_dtype": "float32"}}, {"name": "StatefulPartitionedCall/matting_network_wrapper/StatefulPartitionedCall/mobile_net_v3_encoder/inverted_residual_11/sequential_11/conv_bn_activation_33/hardswish_11/add/y", "shape": [], "dtype": "float32", "quantization": {"dtype": "uint8", "min": 3.0, "scale": 1.0, "original_dtype": "float32"}}, {"name": "StatefulPartitionedCall/matting_network_wrapper/StatefulPartitionedCall/mobile_net_v3_encoder/inverted_residual_11/sequential_11/conv_bn_activation_34/zero_padding2d_12/Pad/paddings", "shape": [4, 2], "dtype": "int32"}, {"name": "StatefulPartitionedCall/matting_network_wrapper/StatefulPartitionedCall/mobile_net_v3_encoder/inverted_residual_11/sequential_11/conv_bn_activation_34/hardswish_12/add/y", "shape": [], "dtype": "float32", "quantization": {"dtype": "uint8", "min": 3.0, "scale": 1.0, "original_dtype": "float32"}}, {"name": "ConstantFolding/StatefulPartitionedCall/matting_network_wrapper/StatefulPartitionedCall/mobile_net_v3_encoder/inverted_residual_10/sequential_10/squeeze_excitation_3/truediv_recip", "shape": [], "dtype": "float32", "quantization": {"dtype": "uint8", "min": 0.1666666716337204, "scale": 1.0, "original_dtype": "float32"}}, {"name": "StatefulPartitionedCall/matting_network_wrapper/StatefulPartitionedCall/mobile_net_v3_encoder/inverted_residual_10/sequential_10/squeeze_excitation_3/Mean/reduction_indices", "shape": [2], "dtype": "int32"}, {"name": "StatefulPartitionedCall/matting_network_wrapper/StatefulPartitionedCall/mobile_net_v3_encoder/inverted_residual_10/sequential_10/squeeze_excitation_3/conv2d_27/Conv2D/ReadVariableOp", "shape": [1, 1, 480, 120], "dtype": "float32", "quantization": {"dtype": "uint8", "min": -2.284480602133508, "scale": 0.015975388826108446, "original_dtype": "float32"}}, {"name": "StatefulPartitionedCall/matting_network_wrapper/StatefulPartitionedCall/mobile_net_v3_encoder/inverted_residual_10/sequential_10/squeeze_excitation_3/conv2d_27/BiasAdd/ReadVariableOp", "shape": [120], "dtype": "float32", "quantization": {"dtype": "uint8", "min": -0.10886880965793834, "scale": 0.001344059378493066, "original_dtype": "float32"}}, {"name": "StatefulPartitionedCall/matting_network_wrapper/StatefulPartitionedCall/mobile_net_v3_encoder/inverted_residual_10/sequential_10/squeeze_excitation_3/conv2d_28/Conv2D/ReadVariableOp", "shape": [1, 1, 120, 480], "dtype": "float32", "quantization": {"dtype": "uint8", "min": -0.9232337163943871, "scale": 0.009140927885092942, "original_dtype": "float32"}}, {"name": "StatefulPartitionedCall/matting_network_wrapper/StatefulPartitionedCall/mobile_net_v3_encoder/inverted_residual_10/sequential_10/squeeze_excitation_3/conv2d_28/BiasAdd/ReadVariableOp", "shape": [480], "dtype": "float32", "quantization": {"dtype": "uint8", "min": -0.375466170556405, "scale": 0.002422362390686484, "original_dtype": "float32"}}, {"name": "StatefulPartitionedCall/matting_network_wrapper/StatefulPartitionedCall/mobile_net_v3_encoder/inverted_residual_10/sequential_10/squeeze_excitation_3/add/y", "shape": [], "dtype": "float32", "quantization": {"dtype": "uint8", "min": 3.0, "scale": 1.0, "original_dtype": "float32"}}, {"name": "ConstantFolding/StatefulPartitionedCall/matting_network_wrapper/StatefulPartitionedCall/mobile_net_v3_encoder/inverted_residual_10/sequential_10/conv_bn_activation_31/hardswish_10/truediv_recip", "shape": [], "dtype": "float32", "quantization": {"dtype": "uint8", "min": 0.1666666716337204, "scale": 1.0, "original_dtype": "float32"}}, {"name": "ConstantFolding/StatefulPartitionedCall/matting_network_wrapper/StatefulPartitionedCall/mobile_net_v3_encoder/inverted_residual_10/sequential_10/conv_bn_activation_30/hardswish_9/truediv_recip", "shape": [], "dtype": "float32", "quantization": {"dtype": "uint8", "min": 0.1666666716337204, "scale": 1.0, "original_dtype": "float32"}}, {"name": "ConstantFolding/StatefulPartitionedCall/matting_network_wrapper/StatefulPartitionedCall/mobile_net_v3_encoder/inverted_residual_9/sequential_9/conv_bn_activation_28/hardswish_8/truediv_recip", "shape": [], "dtype": "float32", "quantization": {"dtype": "uint8", "min": 0.1666666716337204, "scale": 1.0, "original_dtype": "float32"}}, {"name": "ConstantFolding/StatefulPartitionedCall/matting_network_wrapper/StatefulPartitionedCall/mobile_net_v3_encoder/inverted_residual_9/sequential_9/conv_bn_activation_27/hardswish_7/truediv_recip", "shape": [], "dtype": "float32", "quantization": {"dtype": "uint8", "min": 0.1666666716337204, "scale": 1.0, "original_dtype": "float32"}}, {"name": "StatefulPartitionedCall/matting_network_wrapper/StatefulPartitionedCall/mobile_net_v3_encoder/inverted_residual_9/sequential_9/conv_bn_activation_27/hardswish_7/add/y", "shape": [], "dtype": "float32", "quantization": {"dtype": "uint8", "min": 3.0, "scale": 1.0, "original_dtype": "float32"}}, {"name": "StatefulPartitionedCall/matting_network_wrapper/StatefulPartitionedCall/mobile_net_v3_encoder/inverted_residual_9/sequential_9/conv_bn_activation_28/zero_padding2d_10/Pad/paddings", "shape": [4, 2], "dtype": "int32"}, {"name": "StatefulPartitionedCall/matting_network_wrapper/StatefulPartitionedCall/mobile_net_v3_encoder/inverted_residual_9/sequential_9/conv_bn_activation_28/hardswish_8/add/y", "shape": [], "dtype": "float32", "quantization": {"dtype": "uint8", "min": 3.0, "scale": 1.0, "original_dtype": "float32"}}, {"name": "ConstantFolding/StatefulPartitionedCall/matting_network_wrapper/StatefulPartitionedCall/mobile_net_v3_encoder/inverted_residual_8/sequential_8/conv_bn_activation_25/hardswish_6/truediv_recip", "shape": [], "dtype": "float32", "quantization": {"dtype": "uint8", "min": 0.1666666716337204, "scale": 1.0, "original_dtype": "float32"}}, {"name": "ConstantFolding/StatefulPartitionedCall/matting_network_wrapper/StatefulPartitionedCall/mobile_net_v3_encoder/inverted_residual_8/sequential_8/conv_bn_activation_24/hardswish_5/truediv_recip", "shape": [], "dtype": "float32", "quantization": {"dtype": "uint8", "min": 0.1666666716337204, "scale": 1.0, "original_dtype": "float32"}}, {"name": "StatefulPartitionedCall/matting_network_wrapper/StatefulPartitionedCall/mobile_net_v3_encoder/inverted_residual_8/sequential_8/conv_bn_activation_24/hardswish_5/add/y", "shape": [], "dtype": "float32", "quantization": {"dtype": "uint8", "min": 3.0, "scale": 1.0, "original_dtype": "float32"}}, {"name": "StatefulPartitionedCall/matting_network_wrapper/StatefulPartitionedCall/mobile_net_v3_encoder/inverted_residual_8/sequential_8/conv_bn_activation_25/zero_padding2d_9/Pad/paddings", "shape": [4, 2], "dtype": "int32"}, {"name": "StatefulPartitionedCall/matting_network_wrapper/StatefulPartitionedCall/mobile_net_v3_encoder/inverted_residual_8/sequential_8/conv_bn_activation_25/hardswish_6/add/y", "shape": [], "dtype": "float32", "quantization": {"dtype": "uint8", "min": 3.0, "scale": 1.0, "original_dtype": "float32"}}, {"name": "ConstantFolding/StatefulPartitionedCall/matting_network_wrapper/StatefulPartitionedCall/mobile_net_v3_encoder/inverted_residual_7/sequential_7/conv_bn_activation_22/hardswish_4/truediv_recip", "shape": [], "dtype": "float32", "quantization": {"dtype": "uint8", "min": 0.1666666716337204, "scale": 1.0, "original_dtype": "float32"}}, {"name": "ConstantFolding/StatefulPartitionedCall/matting_network_wrapper/StatefulPartitionedCall/mobile_net_v3_encoder/inverted_residual_7/sequential_7/conv_bn_activation_21/hardswish_3/truediv_recip", "shape": [], "dtype": "float32", "quantization": {"dtype": "uint8", "min": 0.1666666716337204, "scale": 1.0, "original_dtype": "float32"}}, {"name": "StatefulPartitionedCall/matting_network_wrapper/StatefulPartitionedCall/mobile_net_v3_encoder/inverted_residual_7/sequential_7/conv_bn_activation_21/hardswish_3/add/y", "shape": [], "dtype": "float32", "quantization": {"dtype": "uint8", "min": 3.0, "scale": 1.0, "original_dtype": "float32"}}, {"name": "StatefulPartitionedCall/matting_network_wrapper/StatefulPartitionedCall/mobile_net_v3_encoder/inverted_residual_7/sequential_7/conv_bn_activation_22/zero_padding2d_8/Pad/paddings", "shape": [4, 2], "dtype": "int32"}, {"name": "StatefulPartitionedCall/matting_network_wrapper/StatefulPartitionedCall/mobile_net_v3_encoder/inverted_residual_7/sequential_7/conv_bn_activation_22/hardswish_4/add/y", "shape": [], "dtype": "float32", "quantization": {"dtype": "uint8", "min": 3.0, "scale": 1.0, "original_dtype": "float32"}}, {"name": "ConstantFolding/StatefulPartitionedCall/matting_network_wrapper/StatefulPartitionedCall/mobile_net_v3_encoder/inverted_residual_6/sequential_6/conv_bn_activation_19/hardswish_2/truediv_recip", "shape": [], "dtype": "float32", "quantization": {"dtype": "uint8", "min": 0.1666666716337204, "scale": 1.0, "original_dtype": "float32"}}, {"name": "ConstantFolding/StatefulPartitionedCall/matting_network_wrapper/StatefulPartitionedCall/mobile_net_v3_encoder/inverted_residual_6/sequential_6/conv_bn_activation_18/hardswish_1/truediv_recip", "shape": [], "dtype": "float32", "quantization": {"dtype": "uint8", "min": 0.1666666716337204, "scale": 1.0, "original_dtype": "float32"}}, {"name": "StatefulPartitionedCall/matting_network_wrapper/StatefulPartitionedCall/mobile_net_v3_encoder/inverted_residual_6/sequential_6/conv_bn_activation_18/hardswish_1/add/y", "shape": [], "dtype": "float32", "quantization": {"dtype": "uint8", "min": 3.0, "scale": 1.0, "original_dtype": "float32"}}, {"name": "StatefulPartitionedCall/matting_network_wrapper/StatefulPartitionedCall/mobile_net_v3_encoder/inverted_residual_6/sequential_6/conv_bn_activation_19/zero_padding2d_7/Pad/paddings", "shape": [4, 2], "dtype": "int32"}, {"name": "StatefulPartitionedCall/matting_network_wrapper/StatefulPartitionedCall/mobile_net_v3_encoder/inverted_residual_6/sequential_6/conv_bn_activation_19/hardswish_2/add/y", "shape": [], "dtype": "float32", "quantization": {"dtype": "uint8", "min": 3.0, "scale": 1.0, "original_dtype": "float32"}}, {"name": "StatefulPartitionedCall/matting_network_wrapper/StatefulPartitionedCall/mobile_net_v3_encoder/inverted_residual_10/sequential_10/conv_bn_activation_30/hardswish_9/add/y", "shape": [], "dtype": "float32", "quantization": {"dtype": "uint8", "min": 3.0, "scale": 1.0, "original_dtype": "float32"}}, {"name": "StatefulPartitionedCall/matting_network_wrapper/StatefulPartitionedCall/mobile_net_v3_encoder/inverted_residual_10/sequential_10/conv_bn_activation_31/zero_padding2d_11/Pad/paddings", "shape": [4, 2], "dtype": "int32"}, {"name": "StatefulPartitionedCall/matting_network_wrapper/StatefulPartitionedCall/mobile_net_v3_encoder/inverted_residual_10/sequential_10/conv_bn_activation_31/hardswish_10/add/y", "shape": [], "dtype": "float32", "quantization": {"dtype": "uint8", "min": 3.0, "scale": 1.0, "original_dtype": "float32"}}, {"name": "StatefulPartitionedCall/matting_network_wrapper/StatefulPartitionedCall/mobile_net_v3_encoder/inverted_residual_12/sequential_12/conv_bn_activation_36/hardswish_13/add/y", "shape": [], "dtype": "float32", "quantization": {"dtype": "uint8", "min": 3.0, "scale": 1.0, "original_dtype": "float32"}}, {"name": "StatefulPartitionedCall/matting_network_wrapper/StatefulPartitionedCall/mobile_net_v3_encoder/inverted_residual_12/sequential_12/conv_bn_activation_37/zero_padding2d_13/Pad/paddings", "shape": [4, 2], "dtype": "int32"}, {"name": "StatefulPartitionedCall/matting_network_wrapper/StatefulPartitionedCall/mobile_net_v3_encoder/inverted_residual_12/sequential_12/conv_bn_activation_37/depthwise_conv2d_12/depthwise/strided_slice_1/stack", "shape": [1], "dtype": "int32"}, {"name": "StatefulPartitionedCall/matting_network_wrapper/StatefulPartitionedCall/mobile_net_v3_encoder/inverted_residual_12/sequential_12/conv_bn_activation_37/depthwise_conv2d_12/depthwise/strided_slice_1/stack_1", "shape": [1], "dtype": "int32"}, {"name": "StatefulPartitionedCall/matting_network_wrapper/StatefulPartitionedCall/mobile_net_v3_encoder/inverted_residual_12/sequential_12/conv_bn_activation_37/depthwise_conv2d_12/depthwise/strided_slice_1/stack_2", "shape": [1], "dtype": "int32"}, {"name": "StatefulPartitionedCall/matting_network_wrapper/StatefulPartitionedCall/mobile_net_v3_encoder/inverted_residual_12/sequential_12/conv_bn_activation_37/depthwise_conv2d_12/depthwise/dilation_rate", "shape": [2], "dtype": "int32"}, {"name": "StatefulPartitionedCall/matting_network_wrapper/StatefulPartitionedCall/mobile_net_v3_encoder/inverted_residual_12/sequential_12/conv_bn_activation_37/depthwise_conv2d_12/depthwise/required_space_to_batch_paddings/strided_slice_7/stack", "shape": [1], "dtype": "int32"}, {"name": "StatefulPartitionedCall/matting_network_wrapper/StatefulPartitionedCall/mobile_net_v3_encoder/inverted_residual_12/sequential_12/conv_bn_activation_37/depthwise_conv2d_12/depthwise/required_space_to_batch_paddings/strided_slice_7/stack_1", "shape": [1], "dtype": "int32"}, {"name": "StatefulPartitionedCall/matting_network_wrapper/StatefulPartitionedCall/mobile_net_v3_encoder/inverted_residual_12/sequential_12/conv_bn_activation_37/depthwise_conv2d_12/depthwise/required_space_to_batch_paddings/strided_slice_7/stack_2", "shape": [1], "dtype": "int32"}, {"name": "StatefulPartitionedCall/matting_network_wrapper/StatefulPartitionedCall/mobile_net_v3_encoder/inverted_residual_12/sequential_12/conv_bn_activation_37/hardswish_14/add/y", "shape": [], "dtype": "float32", "quantization": {"dtype": "uint8", "min": 3.0, "scale": 1.0, "original_dtype": "float32"}}, {"name": "StatefulPartitionedCall/matting_network_wrapper/StatefulPartitionedCall/mobile_net_v3_encoder/conv_bn_activation_45/hardswish_19/add/y", "shape": [], "dtype": "float32", "quantization": {"dtype": "uint8", "min": 3.0, "scale": 1.0, "original_dtype": "float32"}}, {"name": "StatefulPartitionedCall/matting_network_wrapper/StatefulPartitionedCall/lraspp/Mean/reduction_indices", "shape": [2], "dtype": "int32"}, {"name": "StatefulPartitionedCall/matting_network_wrapper/StatefulPartitionedCall/lraspp/conv2d_48/Conv2D/ReadVariableOp", "shape": [1, 1, 960, 128], "dtype": "float32", "quantization": {"dtype": "uint8", "min": -0.5553079661201028, "scale": 0.004871122509825463, "original_dtype": "float32"}}, {"name": "StatefulPartitionedCall/matting_network_wrapper/StatefulPartitionedCall/recurrent_decoder/bottleneck_block/conv_gru/concat_1/axis", "shape": [], "dtype": "int32"}, {"name": "StatefulPartitionedCall/matting_network_wrapper/StatefulPartitionedCall/recurrent_decoder/bottleneck_block/conv_gru/conv2d_50/Conv2D/ReadVariableOp", "shape": [3, 3, 128, 64], "dtype": "float32", "quantization": {"dtype": "uint8", "min": -0.5254649372661815, "scale": 0.004073371606714585, "original_dtype": "float32"}}, {"name": "StatefulPartitionedCall/matting_network_wrapper/StatefulPartitionedCall/recurrent_decoder/bottleneck_block/conv_gru/conv2d_50/BiasAdd/ReadVariableOp", "shape": [64], "dtype": "float32", "quantization": {"dtype": "uint8", "min": -0.14611331750364864, "scale": 0.0012382484534207512, "original_dtype": "float32"}}, {"name": "StatefulPartitionedCall/matting_network_wrapper/StatefulPartitionedCall/recurrent_decoder/bottleneck_block/concat/axis", "shape": [], "dtype": "int32"}, {"name": "StatefulPartitionedCall/matting_network_wrapper/StatefulPartitionedCall/recurrent_decoder/upsampling_block/up_sampling2d/strided_slice/stack", "shape": [1], "dtype": "int32"}, {"name": "StatefulPartitionedCall/matting_network_wrapper/StatefulPartitionedCall/recurrent_decoder/upsampling_block/up_sampling2d/strided_slice/stack_1", "shape": [1], "dtype": "int32"}, {"name": "StatefulPartitionedCall/matting_network_wrapper/StatefulPartitionedCall/recurrent_decoder/upsampling_block/up_sampling2d/strided_slice/stack_2", "shape": [1], "dtype": "int32"}, {"name": "StatefulPartitionedCall/matting_network_wrapper/StatefulPartitionedCall/recurrent_decoder/upsampling_block/up_sampling2d/Const", "shape": [2], "dtype": "int32"}, {"name": "StatefulPartitionedCall/matting_network_wrapper/StatefulPartitionedCall/recurrent_decoder/upsampling_block/crop_to_bounding_box/stack", "shape": [4], "dtype": "int32"}, {"name": "StatefulPartitionedCall/matting_network_wrapper/StatefulPartitionedCall/recurrent_decoder/upsampling_block/crop_to_bounding_box/stack_1/0", "shape": [], "dtype": "int32"}, {"name": "StatefulPartitionedCall/matting_network_wrapper/StatefulPartitionedCall/recurrent_decoder/upsampling_block/strided_slice/stack", "shape": [1], "dtype": "int32"}, {"name": "StatefulPartitionedCall/matting_network_wrapper/StatefulPartitionedCall/recurrent_decoder/upsampling_block/strided_slice/stack_1", "shape": [1], "dtype": "int32"}, {"name": "StatefulPartitionedCall/matting_network_wrapper/StatefulPartitionedCall/recurrent_decoder/upsampling_block/strided_slice/stack_2", "shape": [1], "dtype": "int32"}, {"name": "StatefulPartitionedCall/matting_network_wrapper/StatefulPartitionedCall/recurrent_decoder/upsampling_block/strided_slice_1/stack", "shape": [1], "dtype": "int32"}, {"name": "StatefulPartitionedCall/matting_network_wrapper/StatefulPartitionedCall/recurrent_decoder/upsampling_block/strided_slice_1/stack_1", "shape": [1], "dtype": "int32"}, {"name": "StatefulPartitionedCall/matting_network_wrapper/StatefulPartitionedCall/recurrent_decoder/upsampling_block/strided_slice_1/stack_2", "shape": [1], "dtype": "int32"}, {"name": "StatefulPartitionedCall/matting_network_wrapper/StatefulPartitionedCall/recurrent_decoder/upsampling_block/crop_to_bounding_box/stack_1/3", "shape": [], "dtype": "int32"}, {"name": "ConstantFolding/StatefulPartitionedCall/matting_network_wrapper/StatefulPartitionedCall/mobile_net_v3_encoder/inverted_residual_5/sequential_5/squeeze_excitation_2/truediv_recip", "shape": [], "dtype": "float32", "quantization": {"dtype": "uint8", "min": 0.1666666716337204, "scale": 1.0, "original_dtype": "float32"}}, {"name": "StatefulPartitionedCall/matting_network_wrapper/StatefulPartitionedCall/mobile_net_v3_encoder/inverted_residual_5/sequential_5/squeeze_excitation_2/Mean/reduction_indices", "shape": [2], "dtype": "int32"}, {"name": "StatefulPartitionedCall/matting_network_wrapper/StatefulPartitionedCall/mobile_net_v3_encoder/inverted_residual_5/sequential_5/squeeze_excitation_2/conv2d_15/Conv2D/ReadVariableOp", "shape": [1, 1, 120, 32], "dtype": "float32", "quantization": {"dtype": "uint8", "min": -1.023730383199804, "scale": 0.011007853582793591, "original_dtype": "float32"}}, {"name": "StatefulPartitionedCall/matting_network_wrapper/StatefulPartitionedCall/mobile_net_v3_encoder/inverted_residual_5/sequential_5/squeeze_excitation_2/conv2d_15/BiasAdd/ReadVariableOp", "shape": [32], "dtype": "float32", "quantization": {"dtype": "uint8", "min": -0.0, "scale": 0.0007243972890270177, "original_dtype": "float32"}}, {"name": "StatefulPartitionedCall/matting_network_wrapper/StatefulPartitionedCall/mobile_net_v3_encoder/inverted_residual_5/sequential_5/squeeze_excitation_2/conv2d_16/Conv2D/ReadVariableOp", "shape": [1, 1, 32, 120], "dtype": "float32", "quantization": {"dtype": "uint8", "min": -1.2067394480985754, "scale": 0.01257020258436016, "original_dtype": "float32"}}, {"name": "StatefulPartitionedCall/matting_network_wrapper/StatefulPartitionedCall/mobile_net_v3_encoder/inverted_residual_5/sequential_5/squeeze_excitation_2/conv2d_16/BiasAdd/ReadVariableOp", "shape": [120], "dtype": "float32", "quantization": {"dtype": "uint8", "min": -0.3650794309728286, "scale": 0.0024338628731521905, "original_dtype": "float32"}}, {"name": "StatefulPartitionedCall/matting_network_wrapper/StatefulPartitionedCall/mobile_net_v3_encoder/inverted_residual_5/sequential_5/squeeze_excitation_2/add/y", "shape": [], "dtype": "float32", "quantization": {"dtype": "uint8", "min": 3.0, "scale": 1.0, "original_dtype": "float32"}}, {"name": "StatefulPartitionedCall/matting_network_wrapper/StatefulPartitionedCall/mobile_net_v3_encoder/inverted_residual_5/sequential_5/conv_bn_activation_16/zero_padding2d_6/Pad/paddings", "shape": [4, 2], "dtype": "int32"}, {"name": "ConstantFolding/StatefulPartitionedCall/matting_network_wrapper/StatefulPartitionedCall/mobile_net_v3_encoder/inverted_residual_4/sequential_4/squeeze_excitation_1/truediv_recip", "shape": [], "dtype": "float32", "quantization": {"dtype": "uint8", "min": 0.1666666716337204, "scale": 1.0, "original_dtype": "float32"}}, {"name": "StatefulPartitionedCall/matting_network_wrapper/StatefulPartitionedCall/mobile_net_v3_encoder/inverted_residual_4/sequential_4/squeeze_excitation_1/Mean/reduction_indices", "shape": [2], "dtype": "int32"}, {"name": "StatefulPartitionedCall/matting_network_wrapper/StatefulPartitionedCall/mobile_net_v3_encoder/inverted_residual_4/sequential_4/squeeze_excitation_1/conv2d_11/Conv2D/ReadVariableOp", "shape": [1, 1, 120, 32], "dtype": "float32", "quantization": {"dtype": "uint8", "min": -1.449835358881483, "scale": 0.011598682871051863, "original_dtype": "float32"}}, {"name": "StatefulPartitionedCall/matting_network_wrapper/StatefulPartitionedCall/mobile_net_v3_encoder/inverted_residual_4/sequential_4/squeeze_excitation_1/conv2d_11/BiasAdd/ReadVariableOp", "shape": [32], "dtype": "float32", "quantization": {"dtype": "uint8", "min": -0.10568487384155685, "scale": 0.0012733117330308054, "original_dtype": "float32"}}, {"name": "StatefulPartitionedCall/matting_network_wrapper/StatefulPartitionedCall/mobile_net_v3_encoder/inverted_residual_4/sequential_4/squeeze_excitation_1/conv2d_12/Conv2D/ReadVariableOp", "shape": [1, 1, 32, 120], "dtype": "float32", "quantization": {"dtype": "uint8", "min": -1.8468756923488543, "scale": 0.011471277592228908, "original_dtype": "float32"}}, {"name": "StatefulPartitionedCall/matting_network_wrapper/StatefulPartitionedCall/mobile_net_v3_encoder/inverted_residual_4/sequential_4/squeeze_excitation_1/conv2d_12/BiasAdd/ReadVariableOp", "shape": [120], "dtype": "float32", "quantization": {"dtype": "uint8", "min": -0.4406552160487455, "scale": 0.0034159319073546164, "original_dtype": "float32"}}, {"name": "StatefulPartitionedCall/matting_network_wrapper/StatefulPartitionedCall/mobile_net_v3_encoder/inverted_residual_4/sequential_4/squeeze_excitation_1/add/y", "shape": [], "dtype": "float32", "quantization": {"dtype": "uint8", "min": 3.0, "scale": 1.0, "original_dtype": "float32"}}, {"name": "StatefulPartitionedCall/matting_network_wrapper/StatefulPartitionedCall/mobile_net_v3_encoder/inverted_residual_4/sequential_4/conv_bn_activation_13/zero_padding2d_5/Pad/paddings", "shape": [4, 2], "dtype": "int32"}, {"name": "ConstantFolding/StatefulPartitionedCall/matting_network_wrapper/StatefulPartitionedCall/mobile_net_v3_encoder/inverted_residual_3/sequential_3/squeeze_excitation/truediv_recip", "shape": [], "dtype": "float32", "quantization": {"dtype": "uint8", "min": 0.1666666716337204, "scale": 1.0, "original_dtype": "float32"}}, {"name": "StatefulPartitionedCall/matting_network_wrapper/StatefulPartitionedCall/mobile_net_v3_encoder/inverted_residual_3/sequential_3/squeeze_excitation/Mean/reduction_indices", "shape": [2], "dtype": "int32"}, {"name": "StatefulPartitionedCall/matting_network_wrapper/StatefulPartitionedCall/mobile_net_v3_encoder/inverted_residual_3/sequential_3/squeeze_excitation/conv2d_7/Conv2D/ReadVariableOp", "shape": [1, 1, 72, 24], "dtype": "float32", "quantization": {"dtype": "uint8", "min": -0.1927057808520747, "scale": 0.001751870735018861, "original_dtype": "float32"}}, {"name": "StatefulPartitionedCall/matting_network_wrapper/StatefulPartitionedCall/mobile_net_v3_encoder/inverted_residual_3/sequential_3/squeeze_excitation/conv2d_7/BiasAdd/ReadVariableOp", "shape": [24], "dtype": "float32", "quantization": {"dtype": "uint8", "min": -0.0, "scale": 0.0005572530027660378, "original_dtype": "float32"}}, {"name": "StatefulPartitionedCall/matting_network_wrapper/StatefulPartitionedCall/mobile_net_v3_encoder/inverted_residual_3/sequential_3/squeeze_excitation/conv2d_8/Conv2D/ReadVariableOp", "shape": [1, 1, 24, 72], "dtype": "float32", "quantization": {"dtype": "uint8", "min": -0.008567772148286596, "scale": 0.0007139810123572163, "original_dtype": "float32"}}, {"name": "StatefulPartitionedCall/matting_network_wrapper/StatefulPartitionedCall/mobile_net_v3_encoder/inverted_residual_3/sequential_3/squeeze_excitation/conv2d_8/BiasAdd/ReadVariableOp", "shape": [72], "dtype": "float32", "quantization": {"dtype": "uint8", "min": -0.0, "scale": 0.0005834978058633223, "original_dtype": "float32"}}, {"name": "StatefulPartitionedCall/matting_network_wrapper/StatefulPartitionedCall/mobile_net_v3_encoder/inverted_residual_3/sequential_3/squeeze_excitation/add/y", "shape": [], "dtype": "float32", "quantization": {"dtype": "uint8", "min": 3.0, "scale": 1.0, "original_dtype": "float32"}}, {"name": "StatefulPartitionedCall/matting_network_wrapper/StatefulPartitionedCall/mobile_net_v3_encoder/inverted_residual_3/sequential_3/conv_bn_activation_10/zero_padding2d_4/Pad/paddings", "shape": [4, 2], "dtype": "int32"}, {"name": "StatefulPartitionedCall/matting_network_wrapper/StatefulPartitionedCall/recurrent_decoder/upsampling_block/concat/axis", "shape": [], "dtype": "int32"}, {"name": "StatefulPartitionedCall/matting_network_wrapper/StatefulPartitionedCall/recurrent_decoder/upsampling_block/conv_gru_1/concat_1/axis", "shape": [], "dtype": "int32"}, {"name": "StatefulPartitionedCall/matting_network_wrapper/StatefulPartitionedCall/recurrent_decoder/upsampling_block/conv_gru_1/conv2d_53/Conv2D/ReadVariableOp", "shape": [3, 3, 80, 40], "dtype": "float32", "quantization": {"dtype": "uint8", "min": -0.5664401194628548, "scale": 0.004291213026233748, "original_dtype": "float32"}}, {"name": "StatefulPartitionedCall/matting_network_wrapper/StatefulPartitionedCall/recurrent_decoder/upsampling_block/conv_gru_1/conv2d_53/BiasAdd/ReadVariableOp", "shape": [40], "dtype": "float32", "quantization": {"dtype": "uint8", "min": -0.29597337456310496, "scale": 0.0018972652215583652, "original_dtype": "float32"}}, {"name": "StatefulPartitionedCall/matting_network_wrapper/StatefulPartitionedCall/recurrent_decoder/upsampling_block/concat_1/axis", "shape": [], "dtype": "int32"}, {"name": "StatefulPartitionedCall/matting_network_wrapper/StatefulPartitionedCall/recurrent_decoder/upsampling_block_1/up_sampling2d_1/strided_slice/stack", "shape": [1], "dtype": "int32"}, {"name": "StatefulPartitionedCall/matting_network_wrapper/StatefulPartitionedCall/recurrent_decoder/upsampling_block_1/up_sampling2d_1/strided_slice/stack_1", "shape": [1], "dtype": "int32"}, {"name": "StatefulPartitionedCall/matting_network_wrapper/StatefulPartitionedCall/recurrent_decoder/upsampling_block_1/up_sampling2d_1/strided_slice/stack_2", "shape": [1], "dtype": "int32"}, {"name": "StatefulPartitionedCall/matting_network_wrapper/StatefulPartitionedCall/recurrent_decoder/upsampling_block_1/up_sampling2d_1/Const", "shape": [2], "dtype": "int32"}, {"name": "StatefulPartitionedCall/matting_network_wrapper/StatefulPartitionedCall/recurrent_decoder/upsampling_block_1/crop_to_bounding_box/stack", "shape": [4], "dtype": "int32"}, {"name": "StatefulPartitionedCall/matting_network_wrapper/StatefulPartitionedCall/recurrent_decoder/upsampling_block_1/crop_to_bounding_box/stack_1/0", "shape": [], "dtype": "int32"}, {"name": "StatefulPartitionedCall/matting_network_wrapper/StatefulPartitionedCall/recurrent_decoder/upsampling_block_1/strided_slice/stack", "shape": [1], "dtype": "int32"}, {"name": "StatefulPartitionedCall/matting_network_wrapper/StatefulPartitionedCall/recurrent_decoder/upsampling_block_1/strided_slice/stack_1", "shape": [1], "dtype": "int32"}, {"name": "StatefulPartitionedCall/matting_network_wrapper/StatefulPartitionedCall/recurrent_decoder/upsampling_block_1/strided_slice/stack_2", "shape": [1], "dtype": "int32"}, {"name": "StatefulPartitionedCall/matting_network_wrapper/StatefulPartitionedCall/recurrent_decoder/upsampling_block_1/strided_slice_1/stack", "shape": [1], "dtype": "int32"}, {"name": "StatefulPartitionedCall/matting_network_wrapper/StatefulPartitionedCall/recurrent_decoder/upsampling_block_1/strided_slice_1/stack_1", "shape": [1], "dtype": "int32"}, {"name": "StatefulPartitionedCall/matting_network_wrapper/StatefulPartitionedCall/recurrent_decoder/upsampling_block_1/strided_slice_1/stack_2", "shape": [1], "dtype": "int32"}, {"name": "StatefulPartitionedCall/matting_network_wrapper/StatefulPartitionedCall/recurrent_decoder/upsampling_block_1/crop_to_bounding_box/stack_1/3", "shape": [], "dtype": "int32"}, {"name": "StatefulPartitionedCall/matting_network_wrapper/StatefulPartitionedCall/mobile_net_v3_encoder/inverted_residual_2/sequential_2/conv_bn_activation_7/zero_padding2d_3/Pad/paddings", "shape": [4, 2], "dtype": "int32"}, {"name": "StatefulPartitionedCall/matting_network_wrapper/StatefulPartitionedCall/mobile_net_v3_encoder/inverted_residual_1/sequential_1/conv_bn_activation_4/zero_padding2d_2/Pad/paddings", "shape": [4, 2], "dtype": "int32"}, {"name": "StatefulPartitionedCall/matting_network_wrapper/StatefulPartitionedCall/recurrent_decoder/upsampling_block_1/concat/axis", "shape": [], "dtype": "int32"}, {"name": "StatefulPartitionedCall/matting_network_wrapper/StatefulPartitionedCall/recurrent_decoder/upsampling_block_1/conv_gru_2/concat_1/axis", "shape": [], "dtype": "int32"}, {"name": "StatefulPartitionedCall/matting_network_wrapper/StatefulPartitionedCall/recurrent_decoder/upsampling_block_1/conv_gru_2/conv2d_56/Conv2D/ReadVariableOp", "shape": [3, 3, 40, 20], "dtype": "float32", "quantization": {"dtype": "uint8", "min": -0.6741365198995553, "scale": 0.007327570868473427, "original_dtype": "float32"}}, {"name": "StatefulPartitionedCall/matting_network_wrapper/StatefulPartitionedCall/recurrent_decoder/upsampling_block_1/conv_gru_2/conv2d_56/BiasAdd/ReadVariableOp", "shape": [20], "dtype": "float32", "quantization": {"dtype": "uint8", "min": -0.17499509558958165, "scale": 0.0011512835236156687, "original_dtype": "float32"}}, {"name": "StatefulPartitionedCall/matting_network_wrapper/StatefulPartitionedCall/recurrent_decoder/upsampling_block_1/concat_1/axis", "shape": [], "dtype": "int32"}, {"name": "StatefulPartitionedCall/matting_network_wrapper/StatefulPartitionedCall/recurrent_decoder/upsampling_block_2/up_sampling2d_2/strided_slice/stack", "shape": [1], "dtype": "int32"}, {"name": "StatefulPartitionedCall/matting_network_wrapper/StatefulPartitionedCall/recurrent_decoder/upsampling_block_2/up_sampling2d_2/strided_slice/stack_1", "shape": [1], "dtype": "int32"}, {"name": "StatefulPartitionedCall/matting_network_wrapper/StatefulPartitionedCall/recurrent_decoder/upsampling_block_2/up_sampling2d_2/strided_slice/stack_2", "shape": [1], "dtype": "int32"}, {"name": "StatefulPartitionedCall/matting_network_wrapper/StatefulPartitionedCall/recurrent_decoder/upsampling_block_2/up_sampling2d_2/Const", "shape": [2], "dtype": "int32"}, {"name": "StatefulPartitionedCall/matting_network_wrapper/StatefulPartitionedCall/recurrent_decoder/upsampling_block_2/crop_to_bounding_box/stack", "shape": [4], "dtype": "int32"}, {"name": "StatefulPartitionedCall/matting_network_wrapper/StatefulPartitionedCall/recurrent_decoder/upsampling_block_2/crop_to_bounding_box/stack_1/0", "shape": [], "dtype": "int32"}, {"name": "StatefulPartitionedCall/matting_network_wrapper/StatefulPartitionedCall/recurrent_decoder/upsampling_block_2/strided_slice/stack", "shape": [1], "dtype": "int32"}, {"name": "StatefulPartitionedCall/matting_network_wrapper/StatefulPartitionedCall/recurrent_decoder/upsampling_block_2/strided_slice/stack_1", "shape": [1], "dtype": "int32"}, {"name": "StatefulPartitionedCall/matting_network_wrapper/StatefulPartitionedCall/recurrent_decoder/upsampling_block_2/strided_slice/stack_2", "shape": [1], "dtype": "int32"}, {"name": "StatefulPartitionedCall/matting_network_wrapper/StatefulPartitionedCall/recurrent_decoder/upsampling_block_2/strided_slice_1/stack", "shape": [1], "dtype": "int32"}, {"name": "StatefulPartitionedCall/matting_network_wrapper/StatefulPartitionedCall/recurrent_decoder/upsampling_block_2/strided_slice_1/stack_1", "shape": [1], "dtype": "int32"}, {"name": "StatefulPartitionedCall/matting_network_wrapper/StatefulPartitionedCall/recurrent_decoder/upsampling_block_2/strided_slice_1/stack_2", "shape": [1], "dtype": "int32"}, {"name": "StatefulPartitionedCall/matting_network_wrapper/StatefulPartitionedCall/recurrent_decoder/upsampling_block_2/crop_to_bounding_box/stack_1/3", "shape": [], "dtype": "int32"}, {"name": "StatefulPartitionedCall/matting_network_wrapper/StatefulPartitionedCall/mobile_net_v3_encoder/inverted_residual/sequential/conv_bn_activation_1/zero_padding2d_1/Pad/paddings", "shape": [4, 2], "dtype": "int32"}, {"name": "ConstantFolding/StatefulPartitionedCall/matting_network_wrapper/StatefulPartitionedCall/mobile_net_v3_encoder/conv_bn_activation/hardswish/truediv_recip", "shape": [], "dtype": "float32", "quantization": {"dtype": "uint8", "min": 0.1666666716337204, "scale": 1.0, "original_dtype": "float32"}}, {"name": "StatefulPartitionedCall/matting_network_wrapper/StatefulPartitionedCall/mobile_net_v3_encoder/Const", "shape": [3], "dtype": "float32", "quantization": {"dtype": "uint8", "min": 0.4059999883174896, "scale": 0.0003098040234808828, "original_dtype": "float32"}}, {"name": "ConstantFolding/StatefulPartitionedCall/matting_network_wrapper/StatefulPartitionedCall/mobile_net_v3_encoder/truediv_recip", "shape": [3], "dtype": "float32", "quantization": {"dtype": "uint8", "min": 4.366812229156494, "scale": 0.0003822476256127451, "original_dtype": "float32"}}, {"name": "StatefulPartitionedCall/matting_network_wrapper/StatefulPartitionedCall/mobile_net_v3_encoder/conv_bn_activation/zero_padding2d/Pad/paddings", "shape": [4, 2], "dtype": "int32"}, {"name": "StatefulPartitionedCall/matting_network_wrapper/StatefulPartitionedCall/mobile_net_v3_encoder/conv_bn_activation/hardswish/add/y", "shape": [], "dtype": "float32", "quantization": {"dtype": "uint8", "min": 3.0, "scale": 1.0, "original_dtype": "float32"}}, {"name": "StatefulPartitionedCall/matting_network_wrapper/StatefulPartitionedCall/recurrent_decoder/upsampling_block_2/concat/axis", "shape": [], "dtype": "int32"}, {"name": "StatefulPartitionedCall/matting_network_wrapper/StatefulPartitionedCall/recurrent_decoder/upsampling_block_2/conv_gru_3/concat_1/axis", "shape": [], "dtype": "int32"}, {"name": "StatefulPartitionedCall/matting_network_wrapper/StatefulPartitionedCall/recurrent_decoder/upsampling_block_2/conv_gru_3/conv2d_59/Conv2D/ReadVariableOp", "shape": [3, 3, 32, 16], "dtype": "float32", "quantization": {"dtype": "uint8", "min": -0.5000495969080457, "scale": 0.004132641296760708, "original_dtype": "float32"}}, {"name": "StatefulPartitionedCall/matting_network_wrapper/StatefulPartitionedCall/recurrent_decoder/upsampling_block_2/conv_gru_3/conv2d_59/BiasAdd/ReadVariableOp", "shape": [16], "dtype": "float32", "quantization": {"dtype": "uint8", "min": -0.24923206357394947, "scale": 0.0019320315005732518, "original_dtype": "float32"}}, {"name": "StatefulPartitionedCall/matting_network_wrapper/StatefulPartitionedCall/recurrent_decoder/upsampling_block_2/concat_1/axis", "shape": [], "dtype": "int32"}, {"name": "StatefulPartitionedCall/matting_network_wrapper/StatefulPartitionedCall/recurrent_decoder/output_block/up_sampling2d_3/strided_slice/stack", "shape": [1], "dtype": "int32"}, {"name": "StatefulPartitionedCall/matting_network_wrapper/StatefulPartitionedCall/recurrent_decoder/output_block/up_sampling2d_3/strided_slice/stack_1", "shape": [1], "dtype": "int32"}, {"name": "StatefulPartitionedCall/matting_network_wrapper/StatefulPartitionedCall/recurrent_decoder/output_block/up_sampling2d_3/strided_slice/stack_2", "shape": [1], "dtype": "int32"}, {"name": "StatefulPartitionedCall/matting_network_wrapper/StatefulPartitionedCall/recurrent_decoder/output_block/up_sampling2d_3/Const", "shape": [2], "dtype": "int32"}, {"name": "StatefulPartitionedCall/matting_network_wrapper/StatefulPartitionedCall/x", "shape": [], "dtype": "float32", "quantization": {"dtype": "uint8", "min": 1.0, "scale": 1.0, "original_dtype": "float32"}}, {"name": "StatefulPartitionedCall/matting_network_wrapper/StatefulPartitionedCall/recurrent_decoder/output_block/concat/axis", "shape": [], "dtype": "int32"}, {"name": "StatefulPartitionedCall/matting_network_wrapper/StatefulPartitionedCall/conv2d_62/Conv2D/ReadVariableOp", "shape": [1, 1, 16, 4], "dtype": "float32", "quantization": {"dtype": "uint8", "min": -0.4731288902899798, "scale": 0.003504658446592443, "original_dtype": "float32"}}, {"name": "StatefulPartitionedCall/matting_network_wrapper/StatefulPartitionedCall/conv2d_62/BiasAdd/ReadVariableOp", "shape": [4], "dtype": "float32", "quantization": {"dtype": "uint8", "min": 0.002005449030548334, "scale": 0.00048204956064913787, "original_dtype": "float32"}}, {"name": "StatefulPartitionedCall/matting_network_wrapper/StatefulPartitionedCall/Const", "shape": [2], "dtype": "int32"}, {"name": "StatefulPartitionedCall/matting_network_wrapper/StatefulPartitionedCall/split/split_dim", "shape": [], "dtype": "int32"}, {"name": "StatefulPartitionedCall/matting_network_wrapper/StatefulPartitionedCall/mobile_net_v3_encoder/inverted_residual_14/sequential_14/conv_bn_activation_43/batch_normalization_43/FusedBatchNormV3/Scaled", "shape": [960], "dtype": "float32", "quantization": {"dtype": "uint8", "min": 1.682827473814541e-06, "scale": 0.10544904909106796, "original_dtype": "float32"}}, {"name": "StatefulPartitionedCall/matting_network_wrapper/StatefulPartitionedCall/mobile_net_v3_encoder/inverted_residual_14/sequential_14/conv_bn_activation_43/batch_normalization_43/FusedBatchNormV3/Offset", "shape": [960], "dtype": "float32", "quantization": {"dtype": "uint8", "min": -1.4673173754822975, "scale": 0.01767852259617226, "original_dtype": "float32"}}, {"name": "StatefulPartitionedCall/matting_network_wrapper/StatefulPartitionedCall/mobile_net_v3_encoder/inverted_residual_13/sequential_13/conv_bn_activation_40/batch_normalization_40/FusedBatchNormV3/Scaled", "shape": [960], "dtype": "float32", "quantization": {"dtype": "uint8", "min": -0.0, "scale": 0.08704558131602053, "original_dtype": "float32"}}, {"name": "StatefulPartitionedCall/matting_network_wrapper/StatefulPartitionedCall/mobile_net_v3_encoder/inverted_residual_13/sequential_13/conv_bn_activation_40/batch_normalization_40/FusedBatchNormV3/Offset", "shape": [960], "dtype": "float32", "quantization": {"dtype": "uint8", "min": -1.8768193899416459, "scale": 0.01915121826471067, "original_dtype": "float32"}}, {"name": "StatefulPartitionedCall/matting_network_wrapper/StatefulPartitionedCall/mobile_net_v3_encoder/inverted_residual_12/sequential_12/conv_bn_activation_37/batch_normalization_37/FusedBatchNormV3/Scaled", "shape": [672], "dtype": "float32", "quantization": {"dtype": "uint8", "min": -19.687812154433306, "scale": 0.16827189875584023, "original_dtype": "float32"}}, {"name": "StatefulPartitionedCall/matting_network_wrapper/StatefulPartitionedCall/mobile_net_v3_encoder/inverted_residual_12/sequential_12/conv_bn_activation_37/batch_normalization_37/FusedBatchNormV3/Offset", "shape": [672], "dtype": "float32", "quantization": {"dtype": "uint8", "min": -3.7729791304644418, "scale": 0.03493499194874483, "original_dtype": "float32"}}, {"name": "StatefulPartitionedCall/matting_network_wrapper/StatefulPartitionedCall/cond/else/_654/cond/strided_slice/stack", "shape": [1], "dtype": "int32"}, {"name": "StatefulPartitionedCall/matting_network_wrapper/StatefulPartitionedCall/cond/else/_654/cond/strided_slice/stack_1", "shape": [1], "dtype": "int32"}, {"name": "StatefulPartitionedCall/matting_network_wrapper/StatefulPartitionedCall/cond/else/_654/cond/strided_slice/stack_2", "shape": [1], "dtype": "int32"}, {"name": "StatefulPartitionedCall/matting_network_wrapper/StatefulPartitionedCall/cond_1/pivot_f/_665", "shape": [], "dtype": "bool"}, {"name": "StatefulPartitionedCall/matting_network_wrapper/StatefulPartitionedCall/cond_1/pivot_t/_666", "shape": [], "dtype": "bool"}, {"name": "StatefulPartitionedCall/matting_network_wrapper/StatefulPartitionedCall/cond_1/else/_663/cond_1/fast_guided_filter_refiner/fast_guided_filter/strided_slice/stack", "shape": [1], "dtype": "int32"}, {"name": "StatefulPartitionedCall/matting_network_wrapper/StatefulPartitionedCall/cond_1/else/_663/cond_1/fast_guided_filter_refiner/fast_guided_filter/strided_slice/stack_1", "shape": [1], "dtype": "int32"}, {"name": "StatefulPartitionedCall/matting_network_wrapper/StatefulPartitionedCall/cond_1/else/_663/cond_1/fast_guided_filter_refiner/fast_guided_filter/strided_slice/stack_2", "shape": [1], "dtype": "int32"}, {"name": "StatefulPartitionedCall/matting_network_wrapper/StatefulPartitionedCall/cond_1/else/_663/cond_1/fast_guided_filter_refiner/Mean/reduction_indices", "shape": [], "dtype": "int32"}, {"name": "StatefulPartitionedCall/matting_network_wrapper/StatefulPartitionedCall/cond_1/else/_663/cond_1/fast_guided_filter_refiner/concat_2/axis", "shape": [], "dtype": "int32"}, {"name": "StatefulPartitionedCall/matting_network_wrapper/StatefulPartitionedCall/cond_1/else/_663/cond_1/fast_guided_filter_refiner/fast_guided_filter/strided_slice_1/stack", "shape": [1], "dtype": "int32"}, {"name": "StatefulPartitionedCall/matting_network_wrapper/StatefulPartitionedCall/cond_1/else/_663/cond_1/fast_guided_filter_refiner/fast_guided_filter/strided_slice_1/stack_1", "shape": [1], "dtype": "int32"}, {"name": "StatefulPartitionedCall/matting_network_wrapper/StatefulPartitionedCall/cond_1/else/_663/cond_1/fast_guided_filter_refiner/fast_guided_filter/strided_slice_1/stack_2", "shape": [1], "dtype": "int32"}, {"name": "StatefulPartitionedCall/matting_network_wrapper/StatefulPartitionedCall/cond_1/else/_663/cond_1/fast_guided_filter_refiner/Const", "shape": [2], "dtype": "int32"}, {"name": "StatefulPartitionedCall/matting_network_wrapper/StatefulPartitionedCall/cond_1/else/_663/cond_1/fast_guided_filter_refiner/split/split_dim", "shape": [], "dtype": "int32"}, {"name": "StatefulPartitionedCall/matting_network_wrapper/StatefulPartitionedCall/cond_1/else/_663/cond_1/fast_guided_filter_refiner/concat_1/axis", "shape": [], "dtype": "int32"}, {"name": "StatefulPartitionedCall/matting_network_wrapper/StatefulPartitionedCall/cond_1/else/_663/cond_1/fast_guided_filter_refiner/fast_guided_filter/add/y", "shape": [], "dtype": "float32", "quantization": {"dtype": "uint8", "min": 9.999999747378752e-06, "scale": 1.0, "original_dtype": "float32"}}, {"name": "StatefulPartitionedCall/matting_network_wrapper/StatefulPartitionedCall/cond_1/else/_663/cond_1/fast_guided_filter_refiner/Mean_1/reduction_indices", "shape": [], "dtype": "int32"}, {"name": "StatefulPartitionedCall/matting_network_wrapper/StatefulPartitionedCall/cond_1/else/_663/cond_1/fast_guided_filter_refiner/concat/axis", "shape": [], "dtype": "int32"}]}]}